…
      sampler {
        min_scale: 0.3
        max_scale: 1
        min_aspect_ratio: 0.5
        max_aspect_ratio: 2
      }
      sample_constraint {
        min_jaccard_overlap: 0.9
      }
      max_sample: 1
      max_trials: 50
    }
    batch_sampler {
      sampler {
        min_scale: 0.3
        max_scale: 1
        min_aspect_ratio: 0.5
        max_aspect_ratio: 2
      }
      sample_constraint {
        max_jaccard_overlap: 1
      }
      max_sample: 1
      max_trials: 50
    }
    label_map_file: "data/cola/labelmap_voc.prototxt"
  }
}
layer {
  name: "conv1_1"
  type: "Convolution"
  bottom: "data"
  top: "conv1_1"
  param {
    lr_mult: 0
    decay_mult: 0
  }
  param {
    lr_mult: 0
    decay_mult: 0
  }
  convolution_param {
    num_output: 64
    pad: 1
    kernel_size: 3
    weight_filler {
      type: "xavier"
    }
    bias_filler {
      type: "constant"
      value: 0
    }
  }
}
layer {
  name: "relu1_1"
  type: "ReLU"
  bottom: "conv1_1"
  top: "conv1_1"
}
layer {
  name: "conv1_2"
  type: "Convolution"
  bottom: "conv1_1"
  top: "conv1_2"
  param {
    lr_mult: 0
    decay_mult: 0
  }
  param {
    lr_mult: 0
    decay_mult: 0
  }
  convolution_param {
    num_output: 64
    pad: 1
    kernel_size: 3
    weight_filler {
      type: "xavier"
    }
    bias_filler {
      type: "constant"
      value: 0
    }
  }
}
layer {
  name: "relu1_2"
  type: "ReLU"
  bottom: "conv1_2"
  top: "conv1_2"
}
layer {
  name: "pool1"
  type: "Pooling"
  bottom: "conv1_2"
  top: "pool1"
  pooling_param {
    pool: MAX
    kernel_size: 2
    stride: 2
  }
}
layer {
  name: "conv2_1"
  type: "Convolution"
  bottom: "pool1"
  top: "conv2_1"
  param {
    lr_mult: 0
    decay_mult: 0
  }
  param {
    lr_mult: 0
    decay_mult: 0
  }
  convolution_param {
    num_output: 128
    pad: 1
    kernel_size: 3
    weight_filler {
      type: "xavier"
    }
    bias_filler {
      type: "constant"
      value: 0
    }
  }
}
layer {
  name: "relu2_1"
  type: "ReLU"
  bottom: "conv2_1"
  top: "conv2_1"
}
layer {
  name: "conv2_2"
  type: "Convolution"
  bottom: "conv2_1"
  top: "conv2_2"
  param {
    lr_mult: 0
    decay_mult: 0
  }
  param {
    lr_mult: 0
    decay_mult: 0
  }
  convolution_param {
    num_output: 128
    pad: 1
    kernel_size: 3
    weight_filler {
      type: "xavier"
    }
    bias_filler {
      type: "constant"
      value: 0
    }
  }
}
layer {
  name: "relu2_2"
  type: "ReLU"
  bottom: "conv2_2"
  top: "conv2_2"
}
layer {
  name: "pool2"
  type: "Pooling"
  bottom: "conv2_2"
  top: "pool2"
  pooling_param {
    pool: MAX
    kernel_size: 2
    stride: 2
  }
}
layer {
  name: "conv3_1"
  type: "Convolution"
  bottom: "pool2"
  top: "conv3_1"
  param {
    lr_mult: 1
    decay_mult: 1
  }
  param {
    lr_mult: 2
    decay_mult: 0
  }
  convolution_param {
    num_output: 256
    pad: 1
    kernel_size: 3
    weight_filler {
      type: "xavier"
    }
    bias_filler {
      type: "constant"
      value: 0
    }
  }
}
layer {
  name: "relu3_1"
  type: "ReLU"
  bottom: "conv3_1"
  top: "conv3_1"
}
layer {
  name: "conv3_2"
  type: "Convolution"
  bottom: "conv3_1"
  top: "conv3_2"
  param {
    lr_mult: 1
    decay_mult: 1
  }
  param {
    lr_mult: 2
    decay_mult: 0
  }
  convolution_param {
    num_output: 256
    pad: 1
    kernel_size: 3
    weight_filler {
      type: "xavier"
    }
    bias_filler {
      type: "constant"
      value: 0
    }
  }
}
layer {
  name: "relu3_2"
  type: "ReLU"
  bottom: "conv3_2"
  top: "conv3_2"
}
layer {
  name: "conv3_3"
  type: "Convolution"
  bottom: "conv3_2"
  top: "conv3_3"
  param {
    lr_mult: 1
    decay_mult: 1
  }
  param {
    lr_mult: 2
    decay_mult: 0
  }
  convolution_param {
    num_output: 256
    pad: 1
    kernel_size: 3
    weight_filler {
      type: "xavier"
    }
    bias_filler {
      type: "constant"
      value: 0
    }
  }
}
layer {
  name: "relu3_3"
  type: "ReLU"
  bottom: "conv3_3"
  top: "conv3_3"
}
layer {
  name: "pool3"
  type: "Pooling"
  bottom: "conv3_3"
  top: "pool3"
  pooling_param {
    pool: MAX
    kernel_size: 2
    stride: 2
  }
}
layer {
  name: "conv4_1"
  type: "Convolution"
  bottom: "pool3"
  top: "conv4_1"
  param {
    lr_mult: 1
    decay_mult: 1
  }
  param {
    lr_mult: 2
    decay_mult: 0
  }
  convolution_param {
    num_output: 512
    pad: 1
    kernel_size: 3
    weight_filler {
      type: "xavier"
    }
    bias_filler {
      type: "constant"
      value: 0
    }
  }
}
layer {
  name: "relu4_1"
  type: "ReLU"
  bottom: "conv4_1"
  top: "conv4_1"
}
layer {
  name: "conv4_2"
  type: "Convolution"
  bottom: "conv4_1"
  top: "conv4_2"
  param {
    lr_mult: 1
    decay_mult: 1
  }
  param {
    lr_mult: 2
    decay_mult: 0
  }
  convolution_param {
    num_output: 512
    pad: 1
    kernel_size: 3
    weight_filler {
      type: "xavier"
    }
    bias_filler {
      type: "constant"
      value: 0
    }
  }
}
layer {
  name: "relu4_2"
  type: "ReLU"
  bottom: "conv4_2"
  top: "conv4_2"
}
layer {
  name: "conv4_3"
  type: "Convolution"
  bottom: "conv4_2"
  top: "conv4_3"
  param {
    lr_mult: 1
    decay_mult: 1
  }
  param {
    lr_mult: 2
    decay_mult: 0
  }
  convolution_param {
    num_output: 512
    pad: 1
    kernel_size: 3
    weight_filler {
      type: "xavier"
    }
    bias_filler {
      type: "constant"
      value: 0
    }
  }
}
layer {
  name: "relu4_3"
  type: "ReLU"
  bottom: "conv4_3"
  top: "conv4_3"
}
layer {
  name: "pool4"
  type: "Pooling"
  bottom: "conv4_3"
  top: "pool4"
  pooling_param {
    pool: MAX
    kernel_size: 2
    stride: 2
  }
}
layer {
  name: "conv5_1"
  type: "Convolution"
  bottom: "pool4"
  top: "conv5_1"
  param {
    lr_mult: 1
    decay_mult: 1
  }
  param {
    lr_mult: 2
    decay_mult: 0
  }
  convolution_param {
    num_output: 512
    pad: 1
    kernel_size: 3
    weight_filler {
      type: "xavier"
    }
    bias_filler {
      type: "constant"
      value: 0
    }
  }
}
layer {
  name: "relu5_1"
  type: "ReLU"
  bottom: "conv5_1"
  top: "conv5_1"
}
layer {
  name: "conv5_2"
  type: "Convolution"
  bottom: "conv5_1"
  top: "conv5_2"
  param {
    lr_mult: 1
    decay_mult: 1
  }
  param {
    lr_mult: 2
    decay_mult: 0
  }
  convolution_param {
    num_output: 512
    pad: 1
    kernel_size: 3
    weight_filler {
      type: "xavier"
    }
    bias_filler {
      type: "constant"
      value: 0
    }
  }
}
layer {
  name: "relu5_2"
  type: "ReLU"
  bottom: "conv5_2"
  top: "conv5_2"
}
layer {
  name: "conv5_3"
  type: "Convolution"
  bottom: "conv5_2"
  top: "conv5_3"
  param {
    lr_mult: 1
    decay_mult: 1
  }
  param {
    lr_mult: 2
    decay_mult: 0
  }
  convolution_param {
    num_output: 512
    pad: 1
    kernel_size: 3
    weight_filler {
      type: "xavier"
    }
    bias_filler {
      type: "constant"
      value: 0
    }
  }
}
layer {
  name: "relu5_3"
  type: "ReLU"
  bottom: "conv5_3"
  top: "conv5_3"
}
layer {
  name: "pool5"
  type: "Pooling"
  bottom: "conv5_3"
  top: "pool5"
  pooling_param {
    pool: MAX
    kernel_size: 3
    stride: 1
    pad: 1
  }
}
layer {
  name: "fc6"
  type: "Convolution"
  bottom: "pool5"
  top: "fc6"
  param {
    lr_mult: 1
    decay_mult: 1
  }
  param {
    lr_mult: 2
    decay_mult: 0
  }
  convolution_param {
    num_output: 1024
    pad: 6
    kernel_size: 3
    weight_filler {
      type: "xavier"
    }
    bias_filler {
      type: "constant"
      value: 0
    }
    dilation: 6
  }
}
layer {
  name: "relu6"
  type: "ReLU"
  bottom: "fc6"
  top: "fc6"
}
layer {
  name: "fc7"
  type: "Convolution"
  bottom: "fc6"
  top: "fc7"
  param {
    lr_mult: 1
    decay_mult: 1
  }
  param {
    lr_mult: 2
    decay_mult: 0
  }
  convolution_param {
    num_output: 1024
    kernel_size: 1
    weight_filler {
      type: "xavier"
    }
    bias_filler {
      type: "constant"
      value: 0
    }
  }
}
layer {
  name: "relu7"
  type: "ReLU"
  bottom: "fc7"
  top: "fc7"
}
layer {
  name: "conv6_1"
  type: "Convolution"
  bottom: "fc7"
  top: "conv6_1"
  param {
    lr_mult: 1
    decay_mult: 1
  }
  param {
    lr_mult: 2
    decay_mult: 0
  }
  convolution_param {
    num_output: 256
    pad: 0
    kernel_size: 1
    stride: 1
    weight_filler {
      type: "xavier"
    }
    bias_filler {
      type: "constant"
      value: 0
    }
  }
}
layer {
  name: "conv6_1_relu"
  type: "ReLU"
  bottom: "conv6_1"
  top: "conv6_1"
}
layer {
  name: "conv6_2"
  type: "Convolution"
  bottom: "conv6_1"
  top: "conv6_2"
  param {
    lr_mult: 1
    decay_mult: 1
  }
  param {
    lr_mult: 2
    decay_mult: 0
  }
  convolution_param {
    num_output: 512
    pad: 1
    kernel_size: 3
    stride: 2
    weight_filler {
      type: "xavier"
    }
    bias_filler {
      type: "constant"
      value: 0
    }
  }
}
layer {
  name: "conv6_2_relu"
  type: "ReLU"
  bottom: "conv6_2"
  top: "conv6_2"
}
layer {
  name: "conv7_1"
  type: "Convolution"
  bottom: "conv6_2"
  top: "conv7_1"
  param {
    lr_mult: 1
    decay_mult: 1
  }
  param {
    lr_mult: 2
    decay_mult: 0
  }
  convolution_param {
    num_output: 128
    pad: 0
    kernel_size: 1
    stride: 1
    weight_filler {
      type: "xavier"
    }
    bias_filler {
      type: "constant"
      value: 0
    }
  }
}
layer {
  name: "conv7_1_relu"
  type: "ReLU"
  bottom: "conv7_1"
  top: "conv7_1"
}
layer {
  name: "conv7_2"
  type: "Convolution"
  bottom: "conv7_1"
  top: "conv7_2"
  param {
    lr_mult: 1
    decay_mult: 1
  }
  param {
    lr_mult: 2
    decay_mult: 0
  }
  convolution_param {
    num_output: 256
    pad: 1
    kernel_size: 3
    stride: 2
    weight_filler {
      type: "xavier"
    }
    bias_filler {
      type: "constant"
      value: 0
    }
  }
}
layer {
  name: "conv7_2_relu"
  type: "ReLU"
  bottom: "conv7_2"
  top: "conv7_2"
}
layer {
  name: "conv8_1"
  type: "Convolution"
  bottom: "conv7_2"
  top: "conv8_1"
  param {
    lr_mult: 1
    decay_mult: 1
  }
  param {
    lr_mult: 2
    decay_mult: 0
  }
  convolution_param {
    num_output: 128
    pad: 0
    kernel_size: 1
    stride: 1
    weight_filler {
      type: "xavier"
    }
    bias_filler {
      type: "constant"
      value: 0
    }
  }
}
layer {
  name: "conv8_1_relu"
  type: "ReLU"
  bottom: "conv8_1"
  top: "conv8_1"
}
layer {
  name: "conv8_2"
  type: "Convolution"
  bottom: "conv8_1"
  top: "conv8_2"
  param {
    lr_mult: 1
    decay_mult: 1
  }
  param {
    lr_mult: 2
    decay_mult: 0
  }
  convolution_param {
    num_output: 256
    pad: 1
    kernel_size: 3
    stride: 2
    weight_filler {
      type: "xavier"
    }
    bias_filler {
      type: "constant"
      value: 0
    }
  }
}
layer {
  name: "conv8_2_relu"
  type: "ReLU"
  bottom: "conv8_2"
  top: "conv8_2"
}
layer {
  name: "pool6"
  type: "Pooling"
  bottom: "conv8_2"
  top: "pool6"
  pooling_param {
    pool: AVE
    global_pooling: true
  }
}
layer {
  name: "conv4_3_norm"
  type: "Normalize"
  bottom: "conv4_3"
  top: "conv4_3_norm"
  norm_param {
    across_spatial: false
    scale_filler {
      type: "constant"
      value: 20
    }
    channel_shared: false
  }
}
layer {
  name: "conv4_3_norm_mbox_loc"
  type: "Convolution"
  bottom: "conv4_3_norm"
  top: "conv4_3_norm_mbox_loc"
  param {
    lr_mult: 1
    decay_mult: 1
  }
  param {
    lr_mult: 2
    decay_mult: 0
  }
  convolution_param {
    num_output: 8
    pad: 1
    kernel_size: 3
    stride: 1
    weight_filler {
      type: "xavier"
    }
    bias_filler {
      type: "constant"
      value: 0
    }
  }
}
layer {
  name: "conv4_3_norm_mbox_loc_perm"
  type: "Permute"
  bottom: "conv4_3_norm_mbox_loc"
  top: "conv4_3_norm_mbox_loc_perm"
  permute_param {
    order: 0
    order: 2
    order: 3
    order: 1
  }
}
layer {
  name: "conv4_3_norm_mbox_loc_flat"
  type: "Flatten"
  bottom: "conv4_3_norm_mbox_loc_perm"
  top: "conv4_3_norm_mbox_loc_flat"
  flatten_param {
    axis: 1
  }
}
layer {
  name: "conv4_3_norm_mbox_conf"
  type: "Convolution"
  bottom: "conv4_3_norm"
  top: "conv4_3_norm_mbox_conf"
  param {
    lr_mult: 1
    decay_mult: 1
  }
  param {
    lr_mult: 2
    decay_mult: 0
  }
  convolution_param {
    num_output: 4
    pad: 1
    kernel_size: 3
    stride: 1
    weight_filler {
      type: "xavier"
    }
    bias_filler {
      type: "constant"
      value: 0
    }
  }
}
layer {
  name: "conv4_3_norm_mbox_conf_perm"
  type: "Permute"
  bottom: "conv4_3_norm_mbox_conf"
  top: "conv4_3_norm_mbox_conf_perm"
  permute_param {
    order: 0
    order: 2
    order: 3
    order: 1
  }
}
layer {
  name: "conv4_3_norm_mbox_conf_flat"
  type: "Flatten"
  bottom: "conv4_3_norm_mbox_conf_perm"
  top: "conv4_3_norm_mbox_conf_flat"
  flatten_param {
    axis: 1
  }
}
layer {
  name: "conv4_3_norm_mbox_priorbox"
  type: "PriorBox"
  bottom: "conv4_3_norm"
  bottom: "data"
  top: "conv4_3_norm_mbox_priorbox"
  prior_box_param {
    min_size: 30
    aspect_ratio: 2
    flip: false
    clip: true
    variance: 0.1
    variance: 0.1
    variance: 0.2
    variance: 0.2
  }
}
layer {
  name: "fc7_mbox_loc"
  type: "Convolution"
  bottom: "fc7"
  top: "fc7_mbox_loc"
  param {
    lr_mult: 1
    decay_mult: 1
  }
  param {
    lr_mult: 2
    decay_mult: 0
  }
  convolution_param {
    num_output: 16
    pad: 1
    kernel_size: 3
    stride: 1
    weight_filler {
      type: "xavier"
    }
    bias_filler {
      type: "constant"
      value: 0
    }
  }
}
layer {
  name: "fc7_mbox_loc_perm"
  type: "Permute"
  bottom: "fc7_mbox_loc"
  top: "fc7_mbox_loc_perm"
  permute_param {
    order: 0
    order: 2
    order: 3
    order: 1
  }
}
layer {
  name: "fc7_mbox_loc_flat"
  type: "Flatten"
  bottom: "fc7_mbox_loc_perm"
  top: "fc7_mbox_loc_flat"
  flatten_param {
    axis: 1
  }
}
layer {
  name: "fc7_mbox_conf"
  type: "Convolution"
  bottom: "fc7"
  top: "fc7_mbox_conf"
  param {
    lr_mult: 1
    decay_mult: 1
  }
  param {
    lr_mult: 2
    decay_mult: 0
  }
  convolution_param {
    num_output: 8
    pad: 1
    kernel_size: 3
    stride: 1
    weight_filler {
      type: "xavier"
    }
    bias_filler {
      type: "constant"
      value: 0
    }
  }
}
layer {
  name: "fc7_mbox_conf_perm"
  type: "Permute"
  bottom: "fc7_mbox_conf"
  top: "fc7_mbox_conf_perm"
  permute_param {
    order: 0
    order: 2
    order: 3
    order: 1
  }
}
layer {
  name: "fc7_mbox_conf_flat"
  type: "Flatten"
  bottom: "fc7_mbox_conf_perm"
  top: "fc7_mbox_conf_flat"
  flatten_param {
    axis: 1
  }
}
layer {
  name: "fc7_mbox_priorbox"
  type: "PriorBox"
  bottom: "fc7"
  bottom: "data"
  top: "fc7_mbox_priorbox"
  prior_box_param {
    min_size: 60
    max_size: 114
    aspect_ratio: 2
    aspect_ratio: 3
    flip: false
    clip: true
    variance: 0.1
    variance: 0.1
    variance: 0.2
    variance: 0.2
  }
}
layer {
  name: "conv6_2_mbox_loc"
  type: "Convolution"
  bottom: "conv6_2"
  top: "conv6_2_mbox_loc"
  param {
    lr_mult: 1
    decay_mult: 1
  }
  param {
    lr_mult: 2
    decay_mult: 0
  }
  convolution_param {
    num_output: 16
    pad: 1
    kernel_size: 3
    stride: 1
    weight_filler {
      type: "xavier"
    }
    bias_filler {
      type: "constant"
      value: 0
    }
  }
}
layer {
  name: "conv6_2_mbox_loc_perm"
  type: "Permute"
  bottom: "conv6_2_mbox_loc"
  top: "conv6_2_mbox_loc_perm"
  permute_param {
    order: 0
    order: 2
    order: 3
    order: 1
  }
}
layer {
  name: "conv6_2_mbox_loc_flat"
  type: "Flatten"
  bottom: "conv6_2_mbox_loc_perm"
  top: "conv6_2_mbox_loc_flat"
  flatten_param {
    axis: 1
  }
}
layer {
  name: "conv6_2_mbox_conf"
  type: "Convolution"
  bottom: "conv6_2"
  top: "conv6_2_mbox_conf"
  param {
    lr_mult: 1
    decay_mult: 1
  }
  param {
    lr_mult: 2
    decay_mult: 0
  }
  convolution_param {
    num_output: 8
    pad: 1
    kernel_size: 3
    stride: 1
    weight_filler {
      type: "xavier"
    }
    bias_filler {
      type: "constant"
      value: 0
    }
  }
}
layer {
  name: "conv6_2_mbox_conf_perm"
  type: "Permute"
  bottom: "conv6_2_mbox_conf"
  top: "conv6_2_mbox_conf_perm"
  permute_param {
    order: 0
    order: 2
    order: 3
    order: 1
  }
}
layer {
  name: "conv6_2_mbox_conf_flat"
  type: "Flatten"
  bottom: "conv6_2_mbox_conf_perm"
  top: "conv6_2_mbox_conf_flat"
  flatten_param {
    axis: 1
  }
}
layer {
  name: "conv6_2_mbox_priorbox"
  type: "PriorBox"
  bottom: "conv6_2"
  bottom: "data"
  top: "conv6_2_mbox_priorbox"
  prior_box_param {
    min_size: 114
    max_size: 168
    aspect_ratio: 2
    aspect_ratio: 3
    flip: false
    clip: true
    variance: 0.1
    variance: 0.1
    variance: 0.2
    variance: 0.2
  }
}
layer {
  name: "conv7_2_mbox_loc"
  type: "Convolution"
  bottom: "conv7_2"
  top: "conv7_2_mbox_loc"
  param {
    lr_mult: 1
    decay_mult: 1
  }
  param {
    lr_mult: 2
    decay_mult: 0
  }
  convolution_param {
    num_output: 16
    pad: 1
    kernel_size: 3
    stride: 1
    weight_filler {
      type: "xavier"
    }
    bias_filler {
      type: "constant"
      value: 0
    }
  }
}
layer {
  name: "conv7_2_mbox_loc_perm"
  type: "Permute"
  bottom: "conv7_2_mbox_loc"
  top: "conv7_2_mbox_loc_perm"
  permute_param {
    order: 0
    order: 2
    order: 3
    order: 1
  }
}
layer {
  name: "conv7_2_mbox_loc_flat"
  type: "Flatten"
  bottom: "conv7_2_mbox_loc_perm"
  top: "conv7_2_mbox_loc_flat"
  flatten_param {
    axis: 1
  }
}
layer {
  name: "conv7_2_mbox_conf"
  type: "Convolution"
  bottom: "conv7_2"
  top: "conv7_2_mbox_conf"
  param {
    lr_mult: 1
    decay_mult: 1
  }
  param {
    lr_mult: 2
    decay_mult: 0
  }
  convolution_param {
    num_output: 8
    pad: 1
    kernel_size: 3
    stride: 1
    weight_filler {
      type: "xavier"
    }
    bias_filler {
      type: "constant"
      value: 0
    }
  }
}
layer {
  name: "conv7_2_mbox_conf_perm"
  type: "Permute"
  bottom: "conv7_2_mbox_conf"
  top: "conv7_2_mbox_conf_perm"
  permute_param {
    order: 0
    order: 2
    order: 3
    order: 1
  }
}
layer {
  name: "conv7_2_mbox_conf_flat"
  type: "Flatten"
  bottom: "conv7_2_mbox_conf_perm"
  top: "conv7_2_mbox_conf_flat"
  flatten_param {
    axis: 1
  }
}
layer {
  name: "conv7_2_mbox_priorbox"
  type: "PriorBox"
  bottom: "conv7_2"
  bottom: "data"
  top: "conv7_2_mbox_priorbox"
  prior_box_param {
    min_size: 168
    max_size: 222
    aspect_ratio: 2
    aspect_ratio: 3
    flip: false
    clip: true
    variance: 0.1
    variance: 0.1
    variance: 0.2
    variance: 0.2
  }
}
layer {
  name: "conv8_2_mbox_loc"
  type: "Convolution"
  bottom: "conv8_2"
  top: "conv8_2_mbox_loc"
  param {
    lr_mult: 1
    decay_mult: 1
  }
  param {
    lr_mult: 2
    decay_mult: 0
  }
  convolution_param {
    num_output: 16
    pad: 1
    kernel_size: 3
    stride: 1
    weight_filler {
      type: "xavier"
    }
    bias_filler {
      type: "constant"
      value: 0
    }
  }
}
layer {
  name: "conv8_2_mbox_loc_perm"
  type: "Permute"
  bottom: "conv8_2_mbox_loc"
  top: "conv8_2_mbox_loc_perm"
  permute_param {
    order: 0
    order: 2
    order: 3
    order: 1
  }
}
layer {
  name: "conv8_2_mbox_loc_flat"
  type: "Flatten"
  bottom: "conv8_2_mbox_loc_perm"
  top: "conv8_2_mbox_loc_flat"
  flatten_param {
    axis: 1
  }
}
layer {
  name: "conv8_2_mbox_conf"
  type: "Convolution"
  bottom: "conv8_2"
  top: "conv8_2_mbox_conf"
  param {
    lr_mult: 1
    decay_mult: 1
  }
  param {
    lr_mult: 2
    decay_mult: 0
  }
  convolution_param {
    num_output: 8
    pad: 1
    kernel_size: 3
    stride: 1
    weight_filler {
      type: "xavier"
    }
    bias_filler {
      type: "constant"
      value: 0
    }
  }
}
layer {
  name: "conv8_2_mbox_conf_perm"
  type: "Permute"
  bottom: "conv8_2_mbox_conf"
  top: "conv8_2_mbox_conf_perm"
  permute_param {
    order: 0
    order: 2
    order: 3
    order: 1
  }
}
layer {
  name: "conv8_2_mbox_conf_flat"
  type: "Flatten"
  bottom: "conv8_2_mbox_conf_perm"
  top: "conv8_2_mbox_conf_flat"
  flatten_param {
    axis: 1
  }
}
layer {
  name: "conv8_2_mbox_priorbox"
  type: "PriorBox"
  bottom: "conv8_2"
  bottom: "data"
  top: "conv8_2_mbox_priorbox"
  prior_box_param {
    min_size: 222
    max_size: 276
    aspect_ratio: 2
    aspect_ratio: 3
    flip: false
    clip: true
    variance: 0.1
    variance: 0.1
    variance: 0.2
    variance: 0.2
  }
}
layer {
  name: "pool6_mbox_loc"
  type: "Convolution"
  bottom: "pool6"
  top: "pool6_mbox_loc"
  param {
    lr_mult: 1
    decay_mult: 1
  }
  param {
    lr_mult: 2
    decay_mult: 0
  }
  convolution_param {
    num_output: 16
    pad: 1
    kernel_size: 3
    stride: 1
    weight_filler {
      type: "xavier"
    }
    bias_filler {
      type: "constant"
      value: 0
    }
  }
}
layer {
  name: "pool6_mbox_loc_perm"
  type: "Permute"
  bottom: "pool6_mbox_loc"
  top: "pool6_mbox_loc_perm"
  permute_param {
    order: 0
    order: 2
    order: 3
    order: 1
  }
}
layer {
  name: "pool6_mbox_loc_flat"
  type: "Flatten"
  bottom: "pool6_mbox_loc_perm"
  top: "pool6_mbox_loc_flat"
  flatten_param {
    axis: 1
  }
}
layer {
  name: "pool6_mbox_conf"
  type: "Convolution"
  bottom: "pool6"
  top: "pool6_mbox_conf"
  param {
    lr_mult: 1
    decay_mult: 1
  }
  param {
    lr_mult: 2
    decay_mult: 0
  }
  convolution_param {
    num_output: 8
    pad: 1
    kernel_size: 3
    stride: 1
    weight_filler {
      type: "xavier"
    }
    bias_filler {
      type: "constant"
      value: 0
    }
  }
}
layer {
  name: "pool6_mbox_conf_perm"
  type: "Permute"
  bottom: "pool6_mbox_conf"
  top: "pool6_mbox_conf_perm"
  permute_param {
    order: 0
    order: 2
    order: 3
    order: 1
  }
}
layer {
  name: "pool6_mbox_conf_flat"
  type: "Flatten"
  bottom: "pool6_mbox_conf_perm"
  top: "pool6_mbox_conf_flat"
  flatten_param {
    axis: 1
  }
}
layer {
  name: "pool6_mbox_priorbox"
  type: "PriorBox"
  bottom: "pool6"
  bottom: "data"
  top: "pool6_mbox_priorbox"
  prior_box_param {
    min_size: 276
    max_size: 330
    aspect_ratio: 2
    aspect_ratio: 3
    flip: false
    clip: true
    variance: 0.1
    variance: 0.1
    variance: 0.2
    variance: 0.2
  }
}
layer {
  name: "mbox_loc"
  type: "Concat"
  bottom: "conv4_3_norm_mbox_loc_flat"
  bottom: "fc7_mbox_loc_flat"
  bottom: "conv6_2_mbox_loc_flat"
  bottom: "conv7_2_mbox_loc_flat"
  bottom: "conv8_2_mbox_loc_flat"
  bottom: "pool6_mbox_loc_flat"
  top: "mbox_loc"
  concat_param {
    axis: 1
  }
}
layer {
  name: "mbox_conf"
  type: "Concat"
  bottom: "conv4_3_norm_mbox_conf_flat"
  bottom: "fc7_mbox_conf_flat"
  bottom: "conv6_2_mbox_conf_flat"
  bottom: "conv7_2_mbox_conf_flat"
  bottom: "conv8_2_mbox_conf_flat"
  bottom: "pool6_mbox_conf_flat"
  top: "mbox_conf"
  concat_param {
    axis: 1
  }
}
layer {
  name: "mbox_priorbox"
  type: "Concat"
  bottom: "conv4_3_norm_mbox_priorbox"
  bottom: "fc7_mbox_priorbox"
  bottom: "conv6_2_mbox_priorbox"
  bottom: "conv7_2_mbox_priorbox"
  bottom: "conv8_2_mbox_priorbox"
  bottom: "pool6_mbox_priorbox"
  top: "mbox_priorbox"
  concat_param {
    axis: 2
  }
}
layer {
  name: "mbox_loss"
  type: "MultiBoxLoss"
  bottom: "mbox_loc"
  bottom: "mbox_conf"
  bottom: "mbox_priorbox"
  bottom: "label"
  top: "mbox_loss"
  include {
    phase: TRAIN
  }
  propagate_down: true
  propagate_down: true
  propagate_down: false
  propagate_down: false
  loss_param {
    normalization: VALID
  }
  multibox_loss_param {
    loc_loss_type: SMOOTH_L1
    conf_loss_type: SOFTMAX
    loc_weight: 1
    num_classes: 2
    share_location: true
    match_type: PER_PREDICTION
    overlap_threshold: 0.5
    use_prior_for_matching: true
    background_label_id: 0
    use_difficult_gt: false
    do_neg_mining: true
    neg_pos_ratio: 3
    neg_overlap: 0.5
    code_type: CENTER_SIZE
  }
}
I1115 21:32:01.536487   196 layer_factory.hpp:77] Creating layer data
I1115 21:32:01.536888   196 net.cpp:91] Creating Layer data
I1115 21:32:01.536905   196 net.cpp:399] data -> data
I1115 21:32:01.536934   196 net.cpp:399] data -> label
I1115 21:32:01.537473   201 db_lmdb.cpp:35] Opened lmdb examples/cola/cola_trainval_lmdb
I1115 21:32:01.545858   196 annotated_data_layer.cpp:52] output data size: 32,3,300,300
I1115 21:32:01.581601   196 net.cpp:141] Setting up data
I1115 21:32:01.581627   196 net.cpp:148] Top shape: 32 3 300 300 (8640000)
I1115 21:32:01.581643   196 net.cpp:148] Top shape: 1 1 3 8 (24)
I1115 21:32:01.581647   196 net.cpp:156] Memory required for data: 34560096
I1115 21:32:01.581657   196 layer_factory.hpp:77] Creating layer data_data_0_split
I1115 21:32:01.581686   196 net.cpp:91] Creating Layer data_data_0_split
I1115 21:32:01.581692   196 net.cpp:425] data_data_0_split <- data
I1115 21:32:01.581708   196 net.cpp:399] data_data_0_split -> data_data_0_split_0
I1115 21:32:01.581720   196 net.cpp:399] data_data_0_split -> data_data_0_split_1
I1115 21:32:01.581727   196 net.cpp:399] data_data_0_split -> data_data_0_split_2
I1115 21:32:01.581737   196 net.cpp:399] data_data_0_split -> data_data_0_split_3
I1115 21:32:01.581753   196 net.cpp:399] data_data_0_split -> data_data_0_split_4
I1115 21:32:01.581763   196 net.cpp:399] data_data_0_split -> data_data_0_split_5
I1115 21:32:01.581773   196 net.cpp:399] data_data_0_split -> data_data_0_split_6
I1115 21:32:01.581843   196 net.cpp:141] Setting up data_data_0_split
I1115 21:32:01.581851   196 net.cpp:148] Top shape: 32 3 300 300 (8640000)
I1115 21:32:01.581856   196 net.cpp:148] Top shape: 32 3 300 300 (8640000)
I1115 21:32:01.581863   196 net.cpp:148] Top shape: 32 3 300 300 (8640000)
I1115 21:32:01.581869   196 net.cpp:148] Top shape: 32 3 300 300 (8640000)
I1115 21:32:01.581874   196 net.cpp:148] Top shape: 32 3 300 300 (8640000)
I1115 21:32:01.581881   196 net.cpp:148] Top shape: 32 3 300 300 (8640000)
I1115 21:32:01.581885   196 net.cpp:148] Top shape: 32 3 300 300 (8640000)
I1115 21:32:01.581890   196 net.cpp:156] Memory required for data: 276480096
I1115 21:32:01.581894   196 layer_factory.hpp:77] Creating layer conv1_1
I1115 21:32:01.581912   196 net.cpp:91] Creating Layer conv1_1
I1115 21:32:01.581928   196 net.cpp:425] conv1_1 <- data_data_0_split_0
I1115 21:32:01.581941   196 net.cpp:399] conv1_1 -> conv1_1
I1115 21:32:01.718907   196 net.cpp:141] Setting up conv1_1
I1115 21:32:01.718930   196 net.cpp:148] Top shape: 32 64 300 300 (184320000)
I1115 21:32:01.718935   196 net.cpp:156] Memory required for data: 1013760096
I1115 21:32:01.718958   196 layer_factory.hpp:77] Creating layer relu1_1
I1115 21:32:01.718981   196 net.cpp:91] Creating Layer relu1_1
I1115 21:32:01.718986   196 net.cpp:425] relu1_1 <- conv1_1
I1115 21:32:01.718994   196 net.cpp:386] relu1_1 -> conv1_1 (in-place)
I1115 21:32:01.719243   196 net.cpp:141] Setting up relu1_1
I1115 21:32:01.719252   196 net.cpp:148] Top shape: 32 64 300 300 (184320000)
I1115 21:32:01.719256   196 net.cpp:156] Memory required for data: 1751040096
I1115 21:32:01.719264   196 layer_factory.hpp:77] Creating layer conv1_2
I1115 21:32:01.719277   196 net.cpp:91] Creating Layer conv1_2
I1115 21:32:01.719282   196 net.cpp:425] conv1_2 <- conv1_1
I1115 21:32:01.719290   196 net.cpp:399] conv1_2 -> conv1_2
I1115 21:32:01.720618   196 net.cpp:141] Setting up conv1_2
I1115 21:32:01.720629   196 net.cpp:148] Top shape: 32 64 300 300 (184320000)
I1115 21:32:01.720633   196 net.cpp:156] Memory required for data: 2488320096
I1115 21:32:01.720643   196 layer_factory.hpp:77] Creating layer relu1_2
I1115 21:32:01.720651   196 net.cpp:91] Creating Layer relu1_2
I1115 21:32:01.720656   196 net.cpp:425] relu1_2 <- conv1_2
I1115 21:32:01.720664   196 net.cpp:386] relu1_2 -> conv1_2 (in-place)
I1115 21:32:01.720793   196 net.cpp:141] Setting up relu1_2
I1115 21:32:01.720815   196 net.cpp:148] Top shape: 32 64 300 300 (184320000)
I1115 21:32:01.720821   196 net.cpp:156] Memory required for data: 3225600096
I1115 21:32:01.720825   196 layer_factory.hpp:77] Creating layer pool1
I1115 21:32:01.720834   196 net.cpp:91] Creating Layer pool1
I1115 21:32:01.720839   196 net.cpp:425] pool1 <- conv1_2
I1115 21:32:01.720845   196 net.cpp:399] pool1 -> pool1
I1115 21:32:01.720911   196 net.cpp:141] Setting up pool1
I1115 21:32:01.720921   196 net.cpp:148] Top shape: 32 64 150 150 (46080000)
I1115 21:32:01.720924   196 net.cpp:156] Memory required for data: 3409920096
I1115 21:32:01.720928   196 layer_factory.hpp:77] Creating layer conv2_1
I1115 21:32:01.720942   196 net.cpp:91] Creating Layer conv2_1
I1115 21:32:01.720947   196 net.cpp:425] conv2_1 <- pool1
I1115 21:32:01.720954   196 net.cpp:399] conv2_1 -> conv2_1
I1115 21:32:01.722147   196 net.cpp:141] Setting up conv2_1
I1115 21:32:01.722158   196 net.cpp:148] Top shape: 32 128 150 150 (92160000)
I1115 21:32:01.722162   196 net.cpp:156] Memory required for data: 3778560096
I1115 21:32:01.722172   196 layer_factory.hpp:77] Creating layer relu2_1
I1115 21:32:01.722182   196 net.cpp:91] Creating Layer relu2_1
I1115 21:32:01.722189   196 net.cpp:425] relu2_1 <- conv2_1
I1115 21:32:01.722195   196 net.cpp:386] relu2_1 -> conv2_1 (in-place)
I1115 21:32:01.722326   196 net.cpp:141] Setting up relu2_1
I1115 21:32:01.722335   196 net.cpp:148] Top shape: 32 128 150 150 (92160000)
I1115 21:32:01.722339   196 net.cpp:156] Memory required for data: 4147200096
I1115 21:32:01.722344   196 layer_factory.hpp:77] Creating layer conv2_2
I1115 21:32:01.722357   196 net.cpp:91] Creating Layer conv2_2
I1115 21:32:01.722362   196 net.cpp:425] conv2_2 <- conv2_1
I1115 21:32:01.722368   196 net.cpp:399] conv2_2 -> conv2_2
I1115 21:32:01.724232   196 net.cpp:141] Setting up conv2_2
I1115 21:32:01.724244   196 net.cpp:148] Top shape: 32 128 150 150 (92160000)
I1115 21:32:01.724248   196 net.cpp:156] Memory required for data: 4515840096
I1115 21:32:01.724268   196 layer_factory.hpp:77] Creating layer relu2_2
I1115 21:32:01.724275   196 net.cpp:91] Creating Layer relu2_2
I1115 21:32:01.724292   196 net.cpp:425] relu2_2 <- conv2_2
I1115 21:32:01.724298   196 net.cpp:386] relu2_2 -> conv2_2 (in-place)
I1115 21:32:01.724541   196 net.cpp:141] Setting up relu2_2
I1115 21:32:01.724555   196 net.cpp:148] Top shape: 32 128 150 150 (92160000)
I1115 21:32:01.724584   196 net.cpp:156] Memory required for data: 4884480096
I1115 21:32:01.724589   196 layer_factory.hpp:77] Creating layer pool2
I1115 21:32:01.724597   196 net.cpp:91] Creating Layer pool2
I1115 21:32:01.724602   196 net.cpp:425] pool2 <- conv2_2
I1115 21:32:01.724609   196 net.cpp:399] pool2 -> pool2
I1115 21:32:01.724647   196 net.cpp:141] Setting up pool2
I1115 21:32:01.724653   196 net.cpp:148] Top shape: 32 128 75 75 (23040000)
I1115 21:32:01.724659   196 net.cpp:156] Memory required for data: 4976640096
I1115 21:32:01.724664   196 layer_factory.hpp:77] Creating layer conv3_1
I1115 21:32:01.724674   196 net.cpp:91] Creating Layer conv3_1
I1115 21:32:01.724678   196 net.cpp:425] conv3_1 <- pool2
I1115 21:32:01.724686   196 net.cpp:399] conv3_1 -> conv3_1
I1115 21:32:01.727505   196 net.cpp:141] Setting up conv3_1
I1115 21:32:01.727516   196 net.cpp:148] Top shape: 32 256 75 75 (46080000)
I1115 21:32:01.727520   196 net.cpp:156] Memory required for data: 5160960096
I1115 21:32:01.727533   196 layer_factory.hpp:77] Creating layer relu3_1
I1115 21:32:01.727541   196 net.cpp:91] Creating Layer relu3_1
I1115 21:32:01.727546   196 net.cpp:425] relu3_1 <- conv3_1
I1115 21:32:01.727552   196 net.cpp:386] relu3_1 -> conv3_1 (in-place)
I1115 21:32:01.727694   196 net.cpp:141] Setting up relu3_1
I1115 21:32:01.727704   196 net.cpp:148] Top shape: 32 256 75 75 (46080000)
I1115 21:32:01.727707   196 net.cpp:156] Memory required for data: 5345280096
I1115 21:32:01.727711   196 layer_factory.hpp:77] Creating layer conv3_2
I1115 21:32:01.727723   196 net.cpp:91] Creating Layer conv3_2
I1115 21:32:01.727728   196 net.cpp:425] conv3_2 <- conv3_1
I1115 21:32:01.727736   196 net.cpp:399] conv3_2 -> conv3_2
I1115 21:32:01.732074   196 net.cpp:141] Setting up conv3_2
I1115 21:32:01.732089   196 net.cpp:148] Top shape: 32 256 75 75 (46080000)
I1115 21:32:01.732094   196 net.cpp:156] Memory required for data: 5529600096
I1115 21:32:01.732101   196 layer_factory.hpp:77] Creating layer relu3_2
I1115 21:32:01.732110   196 net.cpp:91] Creating Layer relu3_2
I1115 21:32:01.732116   196 net.cpp:425] relu3_2 <- conv3_2
I1115 21:32:01.732125   196 net.cpp:386] relu3_2 -> conv3_2 (in-place)
I1115 21:32:01.732285   196 net.cpp:141] Setting up relu3_2
I1115 21:32:01.732293   196 net.cpp:148] Top shape: 32 256 75 75 (46080000)
I1115 21:32:01.732297   196 net.cpp:156] Memory required for data: 5713920096
I1115 21:32:01.732302   196 layer_factory.hpp:77] Creating layer conv3_3
I1115 21:32:01.732317   196 net.cpp:91] Creating Layer conv3_3
I1115 21:32:01.732322   196 net.cpp:425] conv3_3 <- conv3_2
I1115 21:32:01.732329   196 net.cpp:399] conv3_3 -> conv3_3
I1115 21:32:01.736651   196 net.cpp:141] Setting up conv3_3
I1115 21:32:01.736666   196 net.cpp:148] Top shape: 32 256 75 75 (46080000)
I1115 21:32:01.736670   196 net.cpp:156] Memory required for data: 5898240096
I1115 21:32:01.736678   196 layer_factory.hpp:77] Creating layer relu3_3
I1115 21:32:01.736690   196 net.cpp:91] Creating Layer relu3_3
I1115 21:32:01.736696   196 net.cpp:425] relu3_3 <- conv3_3
I1115 21:32:01.736701   196 net.cpp:386] relu3_3 -> conv3_3 (in-place)
I1115 21:32:01.736930   196 net.cpp:141] Setting up relu3_3
I1115 21:32:01.736940   196 net.cpp:148] Top shape: 32 256 75 75 (46080000)
I1115 21:32:01.736945   196 net.cpp:156] Memory required for data: 6082560096
I1115 21:32:01.736949   196 layer_factory.hpp:77] Creating layer pool3
I1115 21:32:01.736959   196 net.cpp:91] Creating Layer pool3
I1115 21:32:01.736964   196 net.cpp:425] pool3 <- conv3_3
I1115 21:32:01.736970   196 net.cpp:399] pool3 -> pool3
I1115 21:32:01.737010   196 net.cpp:141] Setting up pool3
I1115 21:32:01.737018   196 net.cpp:148] Top shape: 32 256 38 38 (11829248)
I1115 21:32:01.737022   196 net.cpp:156] Memory required for data: 6129877088
I1115 21:32:01.737027   196 layer_factory.hpp:77] Creating layer conv4_1
I1115 21:32:01.737040   196 net.cpp:91] Creating Layer conv4_1
I1115 21:32:01.737046   196 net.cpp:425] conv4_1 <- pool3
I1115 21:32:01.737053   196 net.cpp:399] conv4_1 -> conv4_1
I1115 21:32:01.745169   196 net.cpp:141] Setting up conv4_1
I1115 21:32:01.745192   196 net.cpp:148] Top shape: 32 512 38 38 (23658496)
I1115 21:32:01.745194   196 net.cpp:156] Memory required for data: 6224511072
I1115 21:32:01.745204   196 layer_factory.hpp:77] Creating layer relu4_1
I1115 21:32:01.745214   196 net.cpp:91] Creating Layer relu4_1
I1115 21:32:01.745220   196 net.cpp:425] relu4_1 <- conv4_1
I1115 21:32:01.745229   196 net.cpp:386] relu4_1 -> conv4_1 (in-place)
I1115 21:32:01.745368   196 net.cpp:141] Setting up relu4_1
I1115 21:32:01.745378   196 net.cpp:148] Top shape: 32 512 38 38 (23658496)
I1115 21:32:01.745383   196 net.cpp:156] Memory required for data: 6319145056
I1115 21:32:01.745388   196 layer_factory.hpp:77] Creating layer conv4_2
I1115 21:32:01.745404   196 net.cpp:91] Creating Layer conv4_2
I1115 21:32:01.745409   196 net.cpp:425] conv4_2 <- conv4_1
I1115 21:32:01.745416   196 net.cpp:399] conv4_2 -> conv4_2
I1115 21:32:01.760627   196 net.cpp:141] Setting up conv4_2
I1115 21:32:01.760649   196 net.cpp:148] Top shape: 32 512 38 38 (23658496)
I1115 21:32:01.760653   196 net.cpp:156] Memory required for data: 6413779040
I1115 21:32:01.760669   196 layer_factory.hpp:77] Creating layer relu4_2
I1115 21:32:01.760681   196 net.cpp:91] Creating Layer relu4_2
I1115 21:32:01.760687   196 net.cpp:425] relu4_2 <- conv4_2
I1115 21:32:01.760697   196 net.cpp:386] relu4_2 -> conv4_2 (in-place)
I1115 21:32:01.760851   196 net.cpp:141] Setting up relu4_2
I1115 21:32:01.760859   196 net.cpp:148] Top shape: 32 512 38 38 (23658496)
I1115 21:32:01.760864   196 net.cpp:156] Memory required for data: 6508413024
I1115 21:32:01.760869   196 layer_factory.hpp:77] Creating layer conv4_3
I1115 21:32:01.760882   196 net.cpp:91] Creating Layer conv4_3
I1115 21:32:01.760886   196 net.cpp:425] conv4_3 <- conv4_2
I1115 21:32:01.760896   196 net.cpp:399] conv4_3 -> conv4_3
I1115 21:32:01.775935   196 net.cpp:141] Setting up conv4_3
I1115 21:32:01.775956   196 net.cpp:148] Top shape: 32 512 38 38 (23658496)
I1115 21:32:01.775960   196 net.cpp:156] Memory required for data: 6603047008
I1115 21:32:01.775979   196 layer_factory.hpp:77] Creating layer relu4_3
I1115 21:32:01.775990   196 net.cpp:91] Creating Layer relu4_3
I1115 21:32:01.775996   196 net.cpp:425] relu4_3 <- conv4_3
I1115 21:32:01.776005   196 net.cpp:386] relu4_3 -> conv4_3 (in-place)
I1115 21:32:01.776258   196 net.cpp:141] Setting up relu4_3
I1115 21:32:01.776268   196 net.cpp:148] Top shape: 32 512 38 38 (23658496)
I1115 21:32:01.776273   196 net.cpp:156] Memory required for data: 6697680992
I1115 21:32:01.776276   196 layer_factory.hpp:77] Creating layer conv4_3_relu4_3_0_split
I1115 21:32:01.776290   196 net.cpp:91] Creating Layer conv4_3_relu4_3_0_split
I1115 21:32:01.776295   196 net.cpp:425] conv4_3_relu4_3_0_split <- conv4_3
I1115 21:32:01.776302   196 net.cpp:399] conv4_3_relu4_3_0_split -> conv4_3_relu4_3_0_split_0
I1115 21:32:01.776312   196 net.cpp:399] conv4_3_relu4_3_0_split -> conv4_3_relu4_3_0_split_1
I1115 21:32:01.776350   196 net.cpp:141] Setting up conv4_3_relu4_3_0_split
I1115 21:32:01.776356   196 net.cpp:148] Top shape: 32 512 38 38 (23658496)
I1115 21:32:01.776361   196 net.cpp:148] Top shape: 32 512 38 38 (23658496)
I1115 21:32:01.776366   196 net.cpp:156] Memory required for data: 6886948960
I1115 21:32:01.776371   196 layer_factory.hpp:77] Creating layer pool4
I1115 21:32:01.776381   196 net.cpp:91] Creating Layer pool4
I1115 21:32:01.776386   196 net.cpp:425] pool4 <- conv4_3_relu4_3_0_split_0
I1115 21:32:01.776391   196 net.cpp:399] pool4 -> pool4
I1115 21:32:01.776424   196 net.cpp:141] Setting up pool4
I1115 21:32:01.776432   196 net.cpp:148] Top shape: 32 512 19 19 (5914624)
I1115 21:32:01.776437   196 net.cpp:156] Memory required for data: 6910607456
I1115 21:32:01.776442   196 layer_factory.hpp:77] Creating layer conv5_1
I1115 21:32:01.776465   196 net.cpp:91] Creating Layer conv5_1
I1115 21:32:01.776469   196 net.cpp:425] conv5_1 <- pool4
I1115 21:32:01.776479   196 net.cpp:399] conv5_1 -> conv5_1
I1115 21:32:01.791687   196 net.cpp:141] Setting up conv5_1
I1115 21:32:01.791728   196 net.cpp:148] Top shape: 32 512 19 19 (5914624)
I1115 21:32:01.791733   196 net.cpp:156] Memory required for data: 6934265952
I1115 21:32:01.791752   196 layer_factory.hpp:77] Creating layer relu5_1
I1115 21:32:01.791764   196 net.cpp:91] Creating Layer relu5_1
I1115 21:32:01.791771   196 net.cpp:425] relu5_1 <- conv5_1
I1115 21:32:01.791779   196 net.cpp:386] relu5_1 -> conv5_1 (in-place)
I1115 21:32:01.791923   196 net.cpp:141] Setting up relu5_1
I1115 21:32:01.791932   196 net.cpp:148] Top shape: 32 512 19 19 (5914624)
I1115 21:32:01.791936   196 net.cpp:156] Memory required for data: 6957924448
I1115 21:32:01.791941   196 layer_factory.hpp:77] Creating layer conv5_2
I1115 21:32:01.791954   196 net.cpp:91] Creating Layer conv5_2
I1115 21:32:01.791960   196 net.cpp:425] conv5_2 <- conv5_1
I1115 21:32:01.791968   196 net.cpp:399] conv5_2 -> conv5_2
I1115 21:32:01.806895   196 net.cpp:141] Setting up conv5_2
I1115 21:32:01.806915   196 net.cpp:148] Top shape: 32 512 19 19 (5914624)
I1115 21:32:01.806920   196 net.cpp:156] Memory required for data: 6981582944
I1115 21:32:01.806937   196 layer_factory.hpp:77] Creating layer relu5_2
I1115 21:32:01.806947   196 net.cpp:91] Creating Layer relu5_2
I1115 21:32:01.806964   196 net.cpp:425] relu5_2 <- conv5_2
I1115 21:32:01.806974   196 net.cpp:386] relu5_2 -> conv5_2 (in-place)
I1115 21:32:01.807126   196 net.cpp:141] Setting up relu5_2
I1115 21:32:01.807133   196 net.cpp:148] Top shape: 32 512 19 19 (5914624)
I1115 21:32:01.807137   196 net.cpp:156] Memory required for data: 7005241440
I1115 21:32:01.807142   196 layer_factory.hpp:77] Creating layer conv5_3
I1115 21:32:01.807171   196 net.cpp:91] Creating Layer conv5_3
I1115 21:32:01.807175   196 net.cpp:425] conv5_3 <- conv5_2
I1115 21:32:01.807185   196 net.cpp:399] conv5_3 -> conv5_3
I1115 21:32:01.823583   196 net.cpp:141] Setting up conv5_3
I1115 21:32:01.823606   196 net.cpp:148] Top shape: 32 512 19 19 (5914624)
I1115 21:32:01.823609   196 net.cpp:156] Memory required for data: 7028899936
I1115 21:32:01.823627   196 layer_factory.hpp:77] Creating layer relu5_3
I1115 21:32:01.823642   196 net.cpp:91] Creating Layer relu5_3
I1115 21:32:01.823648   196 net.cpp:425] relu5_3 <- conv5_3
I1115 21:32:01.823657   196 net.cpp:386] relu5_3 -> conv5_3 (in-place)
I1115 21:32:01.823909   196 net.cpp:141] Setting up relu5_3
I1115 21:32:01.823920   196 net.cpp:148] Top shape: 32 512 19 19 (5914624)
I1115 21:32:01.823923   196 net.cpp:156] Memory required for data: 7052558432
I1115 21:32:01.823927   196 layer_factory.hpp:77] Creating layer pool5
I1115 21:32:01.823940   196 net.cpp:91] Creating Layer pool5
I1115 21:32:01.823946   196 net.cpp:425] pool5 <- conv5_3
I1115 21:32:01.823959   196 net.cpp:399] pool5 -> pool5
I1115 21:32:01.824000   196 net.cpp:141] Setting up pool5
I1115 21:32:01.824008   196 net.cpp:148] Top shape: 32 512 19 19 (5914624)
I1115 21:32:01.824012   196 net.cpp:156] Memory required for data: 7076216928
I1115 21:32:01.824018   196 layer_factory.hpp:77] Creating layer fc6
I1115 21:32:01.824033   196 net.cpp:91] Creating Layer fc6
I1115 21:32:01.824038   196 net.cpp:425] fc6 <- pool5
I1115 21:32:01.824044   196 net.cpp:399] fc6 -> fc6
I1115 21:32:01.854847   196 net.cpp:141] Setting up fc6
I1115 21:32:01.854871   196 net.cpp:148] Top shape: 32 1024 19 19 (11829248)
I1115 21:32:01.854874   196 net.cpp:156] Memory required for data: 7123533920
I1115 21:32:01.854892   196 layer_factory.hpp:77] Creating layer relu6
I1115 21:32:01.854902   196 net.cpp:91] Creating Layer relu6
I1115 21:32:01.854909   196 net.cpp:425] relu6 <- fc6
I1115 21:32:01.854918   196 net.cpp:386] relu6 -> fc6 (in-place)
I1115 21:32:01.855108   196 net.cpp:141] Setting up relu6
I1115 21:32:01.855118   196 net.cpp:148] Top shape: 32 1024 19 19 (11829248)
I1115 21:32:01.855124   196 net.cpp:156] Memory required for data: 7170850912
I1115 21:32:01.855129   196 layer_factory.hpp:77] Creating layer fc7
I1115 21:32:01.855142   196 net.cpp:91] Creating Layer fc7
I1115 21:32:01.855149   196 net.cpp:425] fc7 <- fc6
I1115 21:32:01.855180   196 net.cpp:399] fc7 -> fc7
I1115 21:32:01.862290   196 net.cpp:141] Setting up fc7
I1115 21:32:01.862311   196 net.cpp:148] Top shape: 32 1024 19 19 (11829248)
I1115 21:32:01.862315   196 net.cpp:156] Memory required for data: 7218167904
I1115 21:32:01.862334   196 layer_factory.hpp:77] Creating layer relu7
I1115 21:32:01.862346   196 net.cpp:91] Creating Layer relu7
I1115 21:32:01.862352   196 net.cpp:425] relu7 <- fc7
I1115 21:32:01.862362   196 net.cpp:386] relu7 -> fc7 (in-place)
I1115 21:32:01.862659   196 net.cpp:141] Setting up relu7
I1115 21:32:01.862669   196 net.cpp:148] Top shape: 32 1024 19 19 (11829248)
I1115 21:32:01.862673   196 net.cpp:156] Memory required for data: 7265484896
I1115 21:32:01.862679   196 layer_factory.hpp:77] Creating layer fc7_relu7_0_split
I1115 21:32:01.862687   196 net.cpp:91] Creating Layer fc7_relu7_0_split
I1115 21:32:01.862692   196 net.cpp:425] fc7_relu7_0_split <- fc7
I1115 21:32:01.862700   196 net.cpp:399] fc7_relu7_0_split -> fc7_relu7_0_split_0
I1115 21:32:01.862709   196 net.cpp:399] fc7_relu7_0_split -> fc7_relu7_0_split_1
I1115 21:32:01.862725   196 net.cpp:399] fc7_relu7_0_split -> fc7_relu7_0_split_2
I1115 21:32:01.862733   196 net.cpp:399] fc7_relu7_0_split -> fc7_relu7_0_split_3
I1115 21:32:01.862792   196 net.cpp:141] Setting up fc7_relu7_0_split
I1115 21:32:01.862797   196 net.cpp:148] Top shape: 32 1024 19 19 (11829248)
I1115 21:32:01.862802   196 net.cpp:148] Top shape: 32 1024 19 19 (11829248)
I1115 21:32:01.862804   196 net.cpp:148] Top shape: 32 1024 19 19 (11829248)
I1115 21:32:01.862808   196 net.cpp:148] Top shape: 32 1024 19 19 (11829248)
I1115 21:32:01.862810   196 net.cpp:156] Memory required for data: 7454752864
I1115 21:32:01.862812   196 layer_factory.hpp:77] Creating layer conv6_1
I1115 21:32:01.862831   196 net.cpp:91] Creating Layer conv6_1
I1115 21:32:01.862838   196 net.cpp:425] conv6_1 <- fc7_relu7_0_split_0
I1115 21:32:01.862844   196 net.cpp:399] conv6_1 -> conv6_1
I1115 21:32:01.865306   196 net.cpp:141] Setting up conv6_1
I1115 21:32:01.865317   196 net.cpp:148] Top shape: 32 256 19 19 (2957312)
I1115 21:32:01.865320   196 net.cpp:156] Memory required for data: 7466582112
I1115 21:32:01.865324   196 layer_factory.hpp:77] Creating layer conv6_1_relu
I1115 21:32:01.865330   196 net.cpp:91] Creating Layer conv6_1_relu
I1115 21:32:01.865341   196 net.cpp:425] conv6_1_relu <- conv6_1
I1115 21:32:01.865345   196 net.cpp:386] conv6_1_relu -> conv6_1 (in-place)
I1115 21:32:01.865572   196 net.cpp:141] Setting up conv6_1_relu
I1115 21:32:01.865581   196 net.cpp:148] Top shape: 32 256 19 19 (2957312)
I1115 21:32:01.865583   196 net.cpp:156] Memory required for data: 7478411360
I1115 21:32:01.865586   196 layer_factory.hpp:77] Creating layer conv6_2
I1115 21:32:01.865594   196 net.cpp:91] Creating Layer conv6_2
I1115 21:32:01.865598   196 net.cpp:425] conv6_2 <- conv6_1
I1115 21:32:01.865603   196 net.cpp:399] conv6_2 -> conv6_2
I1115 21:32:01.873522   196 net.cpp:141] Setting up conv6_2
I1115 21:32:01.873541   196 net.cpp:148] Top shape: 32 512 10 10 (1638400)
I1115 21:32:01.873544   196 net.cpp:156] Memory required for data: 7484964960
I1115 21:32:01.873565   196 layer_factory.hpp:77] Creating layer conv6_2_relu
I1115 21:32:01.873572   196 net.cpp:91] Creating Layer conv6_2_relu
I1115 21:32:01.873579   196 net.cpp:425] conv6_2_relu <- conv6_2
I1115 21:32:01.873584   196 net.cpp:386] conv6_2_relu -> conv6_2 (in-place)
I1115 21:32:01.873744   196 net.cpp:141] Setting up conv6_2_relu
I1115 21:32:01.873751   196 net.cpp:148] Top shape: 32 512 10 10 (1638400)
I1115 21:32:01.873754   196 net.cpp:156] Memory required for data: 7491518560
I1115 21:32:01.873756   196 layer_factory.hpp:77] Creating layer conv6_2_conv6_2_relu_0_split
I1115 21:32:01.873764   196 net.cpp:91] Creating Layer conv6_2_conv6_2_relu_0_split
I1115 21:32:01.873766   196 net.cpp:425] conv6_2_conv6_2_relu_0_split <- conv6_2
I1115 21:32:01.873771   196 net.cpp:399] conv6_2_conv6_2_relu_0_split -> conv6_2_conv6_2_relu_0_split_0
I1115 21:32:01.873776   196 net.cpp:399] conv6_2_conv6_2_relu_0_split -> conv6_2_conv6_2_relu_0_split_1
I1115 21:32:01.873809   196 net.cpp:399] conv6_2_conv6_2_relu_0_split -> conv6_2_conv6_2_relu_0_split_2
I1115 21:32:01.873826   196 net.cpp:399] conv6_2_conv6_2_relu_0_split -> conv6_2_conv6_2_relu_0_split_3
I1115 21:32:01.873893   196 net.cpp:141] Setting up conv6_2_conv6_2_relu_0_split
I1115 21:32:01.873901   196 net.cpp:148] Top shape: 32 512 10 10 (1638400)
I1115 21:32:01.873908   196 net.cpp:148] Top shape: 32 512 10 10 (1638400)
I1115 21:32:01.873914   196 net.cpp:148] Top shape: 32 512 10 10 (1638400)
I1115 21:32:01.873919   196 net.cpp:148] Top shape: 32 512 10 10 (1638400)
I1115 21:32:01.873924   196 net.cpp:156] Memory required for data: 7517732960
I1115 21:32:01.873927   196 layer_factory.hpp:77] Creating layer conv7_1
I1115 21:32:01.873952   196 net.cpp:91] Creating Layer conv7_1
I1115 21:32:01.873957   196 net.cpp:425] conv7_1 <- conv6_2_conv6_2_relu_0_split_0
I1115 21:32:01.873967   196 net.cpp:399] conv7_1 -> conv7_1
I1115 21:32:01.875141   196 net.cpp:141] Setting up conv7_1
I1115 21:32:01.875152   196 net.cpp:148] Top shape: 32 128 10 10 (409600)
I1115 21:32:01.875157   196 net.cpp:156] Memory required for data: 7519371360
I1115 21:32:01.875164   196 layer_factory.hpp:77] Creating layer conv7_1_relu
I1115 21:32:01.875171   196 net.cpp:91] Creating Layer conv7_1_relu
I1115 21:32:01.875177   196 net.cpp:425] conv7_1_relu <- conv7_1
I1115 21:32:01.875185   196 net.cpp:386] conv7_1_relu -> conv7_1 (in-place)
I1115 21:32:01.875430   196 net.cpp:141] Setting up conv7_1_relu
I1115 21:32:01.875442   196 net.cpp:148] Top shape: 32 128 10 10 (409600)
I1115 21:32:01.875445   196 net.cpp:156] Memory required for data: 7521009760
I1115 21:32:01.875449   196 layer_factory.hpp:77] Creating layer conv7_2
I1115 21:32:01.875463   196 net.cpp:91] Creating Layer conv7_2
I1115 21:32:01.875468   196 net.cpp:425] conv7_2 <- conv7_1
I1115 21:32:01.875476   196 net.cpp:399] conv7_2 -> conv7_2
I1115 21:32:01.878008   196 net.cpp:141] Setting up conv7_2
I1115 21:32:01.878018   196 net.cpp:148] Top shape: 32 256 5 5 (204800)
I1115 21:32:01.878021   196 net.cpp:156] Memory required for data: 7521828960
I1115 21:32:01.878026   196 layer_factory.hpp:77] Creating layer conv7_2_relu
I1115 21:32:01.878032   196 net.cpp:91] Creating Layer conv7_2_relu
I1115 21:32:01.878036   196 net.cpp:425] conv7_2_relu <- conv7_2
I1115 21:32:01.878038   196 net.cpp:386] conv7_2_relu -> conv7_2 (in-place)
I1115 21:32:01.878293   196 net.cpp:141] Setting up conv7_2_relu
I1115 21:32:01.878303   196 net.cpp:148] Top shape: 32 256 5 5 (204800)
I1115 21:32:01.878316   196 net.cpp:156] Memory required for data: 7522648160
I1115 21:32:01.878319   196 layer_factory.hpp:77] Creating layer conv7_2_conv7_2_relu_0_split
I1115 21:32:01.878324   196 net.cpp:91] Creating Layer conv7_2_conv7_2_relu_0_split
I1115 21:32:01.878329   196 net.cpp:425] conv7_2_conv7_2_relu_0_split <- conv7_2
I1115 21:32:01.878334   196 net.cpp:399] conv7_2_conv7_2_relu_0_split -> conv7_2_conv7_2_relu_0_split_0
I1115 21:32:01.878340   196 net.cpp:399] conv7_2_conv7_2_relu_0_split -> conv7_2_conv7_2_relu_0_split_1
I1115 21:32:01.878343   196 net.cpp:399] conv7_2_conv7_2_relu_0_split -> conv7_2_conv7_2_relu_0_split_2
I1115 21:32:01.878347   196 net.cpp:399] conv7_2_conv7_2_relu_0_split -> conv7_2_conv7_2_relu_0_split_3
I1115 21:32:01.878404   196 net.cpp:141] Setting up conv7_2_conv7_2_relu_0_split
I1115 21:32:01.878410   196 net.cpp:148] Top shape: 32 256 5 5 (204800)
I1115 21:32:01.878414   196 net.cpp:148] Top shape: 32 256 5 5 (204800)
I1115 21:32:01.878417   196 net.cpp:148] Top shape: 32 256 5 5 (204800)
I1115 21:32:01.878422   196 net.cpp:148] Top shape: 32 256 5 5 (204800)
I1115 21:32:01.878423   196 net.cpp:156] Memory required for data: 7525924960
I1115 21:32:01.878425   196 layer_factory.hpp:77] Creating layer conv8_1
I1115 21:32:01.878434   196 net.cpp:91] Creating Layer conv8_1
I1115 21:32:01.878438   196 net.cpp:425] conv8_1 <- conv7_2_conv7_2_relu_0_split_0
I1115 21:32:01.878443   196 net.cpp:399] conv8_1 -> conv8_1
I1115 21:32:01.879415   196 net.cpp:141] Setting up conv8_1
I1115 21:32:01.879426   196 net.cpp:148] Top shape: 32 128 5 5 (102400)
I1115 21:32:01.879427   196 net.cpp:156] Memory required for data: 7526334560
I1115 21:32:01.879433   196 layer_factory.hpp:77] Creating layer conv8_1_relu
I1115 21:32:01.879441   196 net.cpp:91] Creating Layer conv8_1_relu
I1115 21:32:01.879443   196 net.cpp:425] conv8_1_relu <- conv8_1
I1115 21:32:01.879446   196 net.cpp:386] conv8_1_relu -> conv8_1 (in-place)
I1115 21:32:01.879585   196 net.cpp:141] Setting up conv8_1_relu
I1115 21:32:01.879592   196 net.cpp:148] Top shape: 32 128 5 5 (102400)
I1115 21:32:01.879595   196 net.cpp:156] Memory required for data: 7526744160
I1115 21:32:01.879600   196 layer_factory.hpp:77] Creating layer conv8_2
I1115 21:32:01.879607   196 net.cpp:91] Creating Layer conv8_2
I1115 21:32:01.879611   196 net.cpp:425] conv8_2 <- conv8_1
I1115 21:32:01.879616   196 net.cpp:399] conv8_2 -> conv8_2
I1115 21:32:01.882207   196 net.cpp:141] Setting up conv8_2
I1115 21:32:01.882217   196 net.cpp:148] Top shape: 32 256 3 3 (73728)
I1115 21:32:01.882220   196 net.cpp:156] Memory required for data: 7527039072
I1115 21:32:01.882226   196 layer_factory.hpp:77] Creating layer conv8_2_relu
I1115 21:32:01.882231   196 net.cpp:91] Creating Layer conv8_2_relu
I1115 21:32:01.882236   196 net.cpp:425] conv8_2_relu <- conv8_2
I1115 21:32:01.882241   196 net.cpp:386] conv8_2_relu -> conv8_2 (in-place)
I1115 21:32:01.882478   196 net.cpp:141] Setting up conv8_2_relu
I1115 21:32:01.882488   196 net.cpp:148] Top shape: 32 256 3 3 (73728)
I1115 21:32:01.882489   196 net.cpp:156] Memory required for data: 7527333984
I1115 21:32:01.882493   196 layer_factory.hpp:77] Creating layer conv8_2_conv8_2_relu_0_split
I1115 21:32:01.882499   196 net.cpp:91] Creating Layer conv8_2_conv8_2_relu_0_split
I1115 21:32:01.882503   196 net.cpp:425] conv8_2_conv8_2_relu_0_split <- conv8_2
I1115 21:32:01.882508   196 net.cpp:399] conv8_2_conv8_2_relu_0_split -> conv8_2_conv8_2_relu_0_split_0
I1115 21:32:01.882513   196 net.cpp:399] conv8_2_conv8_2_relu_0_split -> conv8_2_conv8_2_relu_0_split_1
I1115 21:32:01.882517   196 net.cpp:399] conv8_2_conv8_2_relu_0_split -> conv8_2_conv8_2_relu_0_split_2
I1115 21:32:01.882521   196 net.cpp:399] conv8_2_conv8_2_relu_0_split -> conv8_2_conv8_2_relu_0_split_3
I1115 21:32:01.882580   196 net.cpp:141] Setting up conv8_2_conv8_2_relu_0_split
I1115 21:32:01.882587   196 net.cpp:148] Top shape: 32 256 3 3 (73728)
I1115 21:32:01.882591   196 net.cpp:148] Top shape: 32 256 3 3 (73728)
I1115 21:32:01.882592   196 net.cpp:148] Top shape: 32 256 3 3 (73728)
I1115 21:32:01.882596   196 net.cpp:148] Top shape: 32 256 3 3 (73728)
I1115 21:32:01.882599   196 net.cpp:156] Memory required for data: 7528513632
I1115 21:32:01.882601   196 layer_factory.hpp:77] Creating layer pool6
I1115 21:32:01.882607   196 net.cpp:91] Creating Layer pool6
I1115 21:32:01.882611   196 net.cpp:425] pool6 <- conv8_2_conv8_2_relu_0_split_0
I1115 21:32:01.882616   196 net.cpp:399] pool6 -> pool6
I1115 21:32:01.882778   196 net.cpp:141] Setting up pool6
I1115 21:32:01.882786   196 net.cpp:148] Top shape: 32 256 1 1 (8192)
I1115 21:32:01.882788   196 net.cpp:156] Memory required for data: 7528546400
I1115 21:32:01.882791   196 layer_factory.hpp:77] Creating layer pool6_pool6_0_split
I1115 21:32:01.882794   196 net.cpp:91] Creating Layer pool6_pool6_0_split
I1115 21:32:01.882798   196 net.cpp:425] pool6_pool6_0_split <- pool6
I1115 21:32:01.882802   196 net.cpp:399] pool6_pool6_0_split -> pool6_pool6_0_split_0
I1115 21:32:01.882808   196 net.cpp:399] pool6_pool6_0_split -> pool6_pool6_0_split_1
I1115 21:32:01.882813   196 net.cpp:399] pool6_pool6_0_split -> pool6_pool6_0_split_2
I1115 21:32:01.882853   196 net.cpp:141] Setting up pool6_pool6_0_split
I1115 21:32:01.882859   196 net.cpp:148] Top shape: 32 256 1 1 (8192)
I1115 21:32:01.882863   196 net.cpp:148] Top shape: 32 256 1 1 (8192)
I1115 21:32:01.882865   196 net.cpp:148] Top shape: 32 256 1 1 (8192)
I1115 21:32:01.882868   196 net.cpp:156] Memory required for data: 7528644704
I1115 21:32:01.882881   196 layer_factory.hpp:77] Creating layer conv4_3_norm
I1115 21:32:01.882890   196 net.cpp:91] Creating Layer conv4_3_norm
I1115 21:32:01.882894   196 net.cpp:425] conv4_3_norm <- conv4_3_relu4_3_0_split_1
I1115 21:32:01.882899   196 net.cpp:399] conv4_3_norm -> conv4_3_norm
I1115 21:32:01.883031   196 net.cpp:141] Setting up conv4_3_norm
I1115 21:32:01.883038   196 net.cpp:148] Top shape: 32 512 38 38 (23658496)
I1115 21:32:01.883040   196 net.cpp:156] Memory required for data: 7623278688
I1115 21:32:01.883044   196 layer_factory.hpp:77] Creating layer conv4_3_norm_conv4_3_norm_0_split
I1115 21:32:01.883049   196 net.cpp:91] Creating Layer conv4_3_norm_conv4_3_norm_0_split
I1115 21:32:01.883054   196 net.cpp:425] conv4_3_norm_conv4_3_norm_0_split <- conv4_3_norm
I1115 21:32:01.883060   196 net.cpp:399] conv4_3_norm_conv4_3_norm_0_split -> conv4_3_norm_conv4_3_norm_0_split_0
I1115 21:32:01.883067   196 net.cpp:399] conv4_3_norm_conv4_3_norm_0_split -> conv4_3_norm_conv4_3_norm_0_split_1
I1115 21:32:01.883083   196 net.cpp:399] conv4_3_norm_conv4_3_norm_0_split -> conv4_3_norm_conv4_3_norm_0_split_2
I1115 21:32:01.883128   196 net.cpp:141] Setting up conv4_3_norm_conv4_3_norm_0_split
I1115 21:32:01.883142   196 net.cpp:148] Top shape: 32 512 38 38 (23658496)
I1115 21:32:01.883148   196 net.cpp:148] Top shape: 32 512 38 38 (23658496)
I1115 21:32:01.883153   196 net.cpp:148] Top shape: 32 512 38 38 (23658496)
I1115 21:32:01.883157   196 net.cpp:156] Memory required for data: 7907180640
I1115 21:32:01.883162   196 layer_factory.hpp:77] Creating layer conv4_3_norm_mbox_loc
I1115 21:32:01.883173   196 net.cpp:91] Creating Layer conv4_3_norm_mbox_loc
I1115 21:32:01.883178   196 net.cpp:425] conv4_3_norm_mbox_loc <- conv4_3_norm_conv4_3_norm_0_split_0
I1115 21:32:01.883186   196 net.cpp:399] conv4_3_norm_mbox_loc -> conv4_3_norm_mbox_loc
I1115 21:32:01.884279   196 net.cpp:141] Setting up conv4_3_norm_mbox_loc
I1115 21:32:01.884290   196 net.cpp:148] Top shape: 32 8 38 38 (369664)
I1115 21:32:01.884294   196 net.cpp:156] Memory required for data: 7908659296
I1115 21:32:01.884302   196 layer_factory.hpp:77] Creating layer conv4_3_norm_mbox_loc_perm
I1115 21:32:01.884315   196 net.cpp:91] Creating Layer conv4_3_norm_mbox_loc_perm
I1115 21:32:01.884320   196 net.cpp:425] conv4_3_norm_mbox_loc_perm <- conv4_3_norm_mbox_loc
I1115 21:32:01.884327   196 net.cpp:399] conv4_3_norm_mbox_loc_perm -> conv4_3_norm_mbox_loc_perm
I1115 21:32:01.884425   196 net.cpp:141] Setting up conv4_3_norm_mbox_loc_perm
I1115 21:32:01.884433   196 net.cpp:148] Top shape: 32 38 38 8 (369664)
I1115 21:32:01.884436   196 net.cpp:156] Memory required for data: 7910137952
I1115 21:32:01.884441   196 layer_factory.hpp:77] Creating layer conv4_3_norm_mbox_loc_flat
I1115 21:32:01.884450   196 net.cpp:91] Creating Layer conv4_3_norm_mbox_loc_flat
I1115 21:32:01.884454   196 net.cpp:425] conv4_3_norm_mbox_loc_flat <- conv4_3_norm_mbox_loc_perm
I1115 21:32:01.884462   196 net.cpp:399] conv4_3_norm_mbox_loc_flat -> conv4_3_norm_mbox_loc_flat
I1115 21:32:01.884496   196 net.cpp:141] Setting up conv4_3_norm_mbox_loc_flat
I1115 21:32:01.884505   196 net.cpp:148] Top shape: 32 11552 (369664)
I1115 21:32:01.884508   196 net.cpp:156] Memory required for data: 7911616608
I1115 21:32:01.884512   196 layer_factory.hpp:77] Creating layer conv4_3_norm_mbox_conf
I1115 21:32:01.884526   196 net.cpp:91] Creating Layer conv4_3_norm_mbox_conf
I1115 21:32:01.884531   196 net.cpp:425] conv4_3_norm_mbox_conf <- conv4_3_norm_conv4_3_norm_0_split_1
I1115 21:32:01.884537   196 net.cpp:399] conv4_3_norm_mbox_conf -> conv4_3_norm_mbox_conf
I1115 21:32:01.885545   196 net.cpp:141] Setting up conv4_3_norm_mbox_conf
I1115 21:32:01.885555   196 net.cpp:148] Top shape: 32 4 38 38 (184832)
I1115 21:32:01.885560   196 net.cpp:156] Memory required for data: 7912355936
I1115 21:32:01.885571   196 layer_factory.hpp:77] Creating layer conv4_3_norm_mbox_conf_perm
I1115 21:32:01.885579   196 net.cpp:91] Creating Layer conv4_3_norm_mbox_conf_perm
I1115 21:32:01.885596   196 net.cpp:425] conv4_3_norm_mbox_conf_perm <- conv4_3_norm_mbox_conf
I1115 21:32:01.885607   196 net.cpp:399] conv4_3_norm_mbox_conf_perm -> conv4_3_norm_mbox_conf_perm
I1115 21:32:01.885702   196 net.cpp:141] Setting up conv4_3_norm_mbox_conf_perm
I1115 21:32:01.885710   196 net.cpp:148] Top shape: 32 38 38 4 (184832)
I1115 21:32:01.885715   196 net.cpp:156] Memory required for data: 7913095264
I1115 21:32:01.885720   196 layer_factory.hpp:77] Creating layer conv4_3_norm_mbox_conf_flat
I1115 21:32:01.885727   196 net.cpp:91] Creating Layer conv4_3_norm_mbox_conf_flat
I1115 21:32:01.885733   196 net.cpp:425] conv4_3_norm_mbox_conf_flat <- conv4_3_norm_mbox_conf_perm
I1115 21:32:01.885740   196 net.cpp:399] conv4_3_norm_mbox_conf_flat -> conv4_3_norm_mbox_conf_flat
I1115 21:32:01.885772   196 net.cpp:141] Setting up conv4_3_norm_mbox_conf_flat
I1115 21:32:01.885782   196 net.cpp:148] Top shape: 32 5776 (184832)
I1115 21:32:01.885797   196 net.cpp:156] Memory required for data: 7913834592
I1115 21:32:01.885808   196 layer_factory.hpp:77] Creating layer conv4_3_norm_mbox_priorbox
I1115 21:32:01.885830   196 net.cpp:91] Creating Layer conv4_3_norm_mbox_priorbox
I1115 21:32:01.885836   196 net.cpp:425] conv4_3_norm_mbox_priorbox <- conv4_3_norm_conv4_3_norm_0_split_2
I1115 21:32:01.885843   196 net.cpp:425] conv4_3_norm_mbox_priorbox <- data_data_0_split_1
I1115 21:32:01.885851   196 net.cpp:399] conv4_3_norm_mbox_priorbox -> conv4_3_norm_mbox_priorbox
I1115 21:32:01.885884   196 net.cpp:141] Setting up conv4_3_norm_mbox_priorbox
I1115 21:32:01.885891   196 net.cpp:148] Top shape: 1 2 11552 (23104)
I1115 21:32:01.885895   196 net.cpp:156] Memory required for data: 7913927008
I1115 21:32:01.885901   196 layer_factory.hpp:77] Creating layer fc7_mbox_loc
I1115 21:32:01.885912   196 net.cpp:91] Creating Layer fc7_mbox_loc
I1115 21:32:01.885917   196 net.cpp:425] fc7_mbox_loc <- fc7_relu7_0_split_1
I1115 21:32:01.885931   196 net.cpp:399] fc7_mbox_loc -> fc7_mbox_loc
I1115 21:32:01.887859   196 net.cpp:141] Setting up fc7_mbox_loc
I1115 21:32:01.887871   196 net.cpp:148] Top shape: 32 16 19 19 (184832)
I1115 21:32:01.887873   196 net.cpp:156] Memory required for data: 7914666336
I1115 21:32:01.887879   196 layer_factory.hpp:77] Creating layer fc7_mbox_loc_perm
I1115 21:32:01.887886   196 net.cpp:91] Creating Layer fc7_mbox_loc_perm
I1115 21:32:01.887890   196 net.cpp:425] fc7_mbox_loc_perm <- fc7_mbox_loc
I1115 21:32:01.887897   196 net.cpp:399] fc7_mbox_loc_perm -> fc7_mbox_loc_perm
I1115 21:32:01.887989   196 net.cpp:141] Setting up fc7_mbox_loc_perm
I1115 21:32:01.887997   196 net.cpp:148] Top shape: 32 19 19 16 (184832)
I1115 21:32:01.888001   196 net.cpp:156] Memory required for data: 7915405664
I1115 21:32:01.888006   196 layer_factory.hpp:77] Creating layer fc7_mbox_loc_flat
I1115 21:32:01.888016   196 net.cpp:91] Creating Layer fc7_mbox_loc_flat
I1115 21:32:01.888021   196 net.cpp:425] fc7_mbox_loc_flat <- fc7_mbox_loc_perm
I1115 21:32:01.888027   196 net.cpp:399] fc7_mbox_loc_flat -> fc7_mbox_loc_flat
I1115 21:32:01.888058   196 net.cpp:141] Setting up fc7_mbox_loc_flat
I1115 21:32:01.888067   196 net.cpp:148] Top shape: 32 5776 (184832)
I1115 21:32:01.888072   196 net.cpp:156] Memory required for data: 7916144992
I1115 21:32:01.888077   196 layer_factory.hpp:77] Creating layer fc7_mbox_conf
I1115 21:32:01.888089   196 net.cpp:91] Creating Layer fc7_mbox_conf
I1115 21:32:01.888095   196 net.cpp:425] fc7_mbox_conf <- fc7_relu7_0_split_2
I1115 21:32:01.888108   196 net.cpp:399] fc7_mbox_conf -> fc7_mbox_conf
I1115 21:32:01.889375   196 net.cpp:141] Setting up fc7_mbox_conf
I1115 21:32:01.889385   196 net.cpp:148] Top shape: 32 8 19 19 (92416)
I1115 21:32:01.889390   196 net.cpp:156] Memory required for data: 7916514656
I1115 21:32:01.889400   196 layer_factory.hpp:77] Creating layer fc7_mbox_conf_perm
I1115 21:32:01.889410   196 net.cpp:91] Creating Layer fc7_mbox_conf_perm
I1115 21:32:01.889415   196 net.cpp:425] fc7_mbox_conf_perm <- fc7_mbox_conf
I1115 21:32:01.889423   196 net.cpp:399] fc7_mbox_conf_perm -> fc7_mbox_conf_perm
I1115 21:32:01.889528   196 net.cpp:141] Setting up fc7_mbox_conf_perm
I1115 21:32:01.889534   196 net.cpp:148] Top shape: 32 19 19 8 (92416)
I1115 21:32:01.889539   196 net.cpp:156] Memory required for data: 7916884320
I1115 21:32:01.889545   196 layer_factory.hpp:77] Creating layer fc7_mbox_conf_flat
I1115 21:32:01.889554   196 net.cpp:91] Creating Layer fc7_mbox_conf_flat
I1115 21:32:01.889559   196 net.cpp:425] fc7_mbox_conf_flat <- fc7_mbox_conf_perm
I1115 21:32:01.889566   196 net.cpp:399] fc7_mbox_conf_flat -> fc7_mbox_conf_flat
I1115 21:32:01.889593   196 net.cpp:141] Setting up fc7_mbox_conf_flat
I1115 21:32:01.889601   196 net.cpp:148] Top shape: 32 2888 (92416)
I1115 21:32:01.889605   196 net.cpp:156] Memory required for data: 7917253984
I1115 21:32:01.889618   196 layer_factory.hpp:77] Creating layer fc7_mbox_priorbox
I1115 21:32:01.889627   196 net.cpp:91] Creating Layer fc7_mbox_priorbox
I1115 21:32:01.889642   196 net.cpp:425] fc7_mbox_priorbox <- fc7_relu7_0_split_3
I1115 21:32:01.889647   196 net.cpp:425] fc7_mbox_priorbox <- data_data_0_split_2
I1115 21:32:01.889653   196 net.cpp:399] fc7_mbox_priorbox -> fc7_mbox_priorbox
I1115 21:32:01.889684   196 net.cpp:141] Setting up fc7_mbox_priorbox
I1115 21:32:01.889690   196 net.cpp:148] Top shape: 1 2 5776 (11552)
I1115 21:32:01.889693   196 net.cpp:156] Memory required for data: 7917300192
I1115 21:32:01.889698   196 layer_factory.hpp:77] Creating layer conv6_2_mbox_loc
I1115 21:32:01.889711   196 net.cpp:91] Creating Layer conv6_2_mbox_loc
I1115 21:32:01.889716   196 net.cpp:425] conv6_2_mbox_loc <- conv6_2_conv6_2_relu_0_split_1
I1115 21:32:01.889724   196 net.cpp:399] conv6_2_mbox_loc -> conv6_2_mbox_loc
I1115 21:32:01.891070   196 net.cpp:141] Setting up conv6_2_mbox_loc
I1115 21:32:01.891079   196 net.cpp:148] Top shape: 32 16 10 10 (51200)
I1115 21:32:01.891085   196 net.cpp:156] Memory required for data: 7917504992
I1115 21:32:01.891098   196 layer_factory.hpp:77] Creating layer conv6_2_mbox_loc_perm
I1115 21:32:01.891106   196 net.cpp:91] Creating Layer conv6_2_mbox_loc_perm
I1115 21:32:01.891113   196 net.cpp:425] conv6_2_mbox_loc_perm <- conv6_2_mbox_loc
I1115 21:32:01.891121   196 net.cpp:399] conv6_2_mbox_loc_perm -> conv6_2_mbox_loc_perm
I1115 21:32:01.891229   196 net.cpp:141] Setting up conv6_2_mbox_loc_perm
I1115 21:32:01.891237   196 net.cpp:148] Top shape: 32 10 10 16 (51200)
I1115 21:32:01.891239   196 net.cpp:156] Memory required for data: 7917709792
I1115 21:32:01.891245   196 layer_factory.hpp:77] Creating layer conv6_2_mbox_loc_flat
I1115 21:32:01.891253   196 net.cpp:91] Creating Layer conv6_2_mbox_loc_flat
I1115 21:32:01.891259   196 net.cpp:425] conv6_2_mbox_loc_flat <- conv6_2_mbox_loc_perm
I1115 21:32:01.891269   196 net.cpp:399] conv6_2_mbox_loc_flat -> conv6_2_mbox_loc_flat
I1115 21:32:01.891296   196 net.cpp:141] Setting up conv6_2_mbox_loc_flat
I1115 21:32:01.891304   196 net.cpp:148] Top shape: 32 1600 (51200)
I1115 21:32:01.891309   196 net.cpp:156] Memory required for data: 7917914592
I1115 21:32:01.891321   196 layer_factory.hpp:77] Creating layer conv6_2_mbox_conf
I1115 21:32:01.891333   196 net.cpp:91] Creating Layer conv6_2_mbox_conf
I1115 21:32:01.891340   196 net.cpp:425] conv6_2_mbox_conf <- conv6_2_conv6_2_relu_0_split_2
I1115 21:32:01.891350   196 net.cpp:399] conv6_2_mbox_conf -> conv6_2_mbox_conf
I1115 21:32:01.892719   196 net.cpp:141] Setting up conv6_2_mbox_conf
I1115 21:32:01.892730   196 net.cpp:148] Top shape: 32 8 10 10 (25600)
I1115 21:32:01.892735   196 net.cpp:156] Memory required for data: 7918016992
I1115 21:32:01.892742   196 layer_factory.hpp:77] Creating layer conv6_2_mbox_conf_perm
I1115 21:32:01.892752   196 net.cpp:91] Creating Layer conv6_2_mbox_conf_perm
I1115 21:32:01.892758   196 net.cpp:425] conv6_2_mbox_conf_perm <- conv6_2_mbox_conf
I1115 21:32:01.892767   196 net.cpp:399] conv6_2_mbox_conf_perm -> conv6_2_mbox_conf_perm
I1115 21:32:01.892859   196 net.cpp:141] Setting up conv6_2_mbox_conf_perm
I1115 21:32:01.892866   196 net.cpp:148] Top shape: 32 10 10 8 (25600)
I1115 21:32:01.892884   196 net.cpp:156] Memory required for data: 7918119392
I1115 21:32:01.892889   196 layer_factory.hpp:77] Creating layer conv6_2_mbox_conf_flat
I1115 21:32:01.892895   196 net.cpp:91] Creating Layer conv6_2_mbox_conf_flat
I1115 21:32:01.892900   196 net.cpp:425] conv6_2_mbox_conf_flat <- conv6_2_mbox_conf_perm
I1115 21:32:01.892909   196 net.cpp:399] conv6_2_mbox_conf_flat -> conv6_2_mbox_conf_flat
I1115 21:32:01.892935   196 net.cpp:141] Setting up conv6_2_mbox_conf_flat
I1115 21:32:01.892941   196 net.cpp:148] Top shape: 32 800 (25600)
I1115 21:32:01.892946   196 net.cpp:156] Memory required for data: 7918221792
I1115 21:32:01.892951   196 layer_factory.hpp:77] Creating layer conv6_2_mbox_priorbox
I1115 21:32:01.892957   196 net.cpp:91] Creating Layer conv6_2_mbox_priorbox
I1115 21:32:01.892962   196 net.cpp:425] conv6_2_mbox_priorbox <- conv6_2_conv6_2_relu_0_split_3
I1115 21:32:01.892968   196 net.cpp:425] conv6_2_mbox_priorbox <- data_data_0_split_3
I1115 21:32:01.892976   196 net.cpp:399] conv6_2_mbox_priorbox -> conv6_2_mbox_priorbox
I1115 21:32:01.893002   196 net.cpp:141] Setting up conv6_2_mbox_priorbox
I1115 21:32:01.893009   196 net.cpp:148] Top shape: 1 2 1600 (3200)
I1115 21:32:01.893013   196 net.cpp:156] Memory required for data: 7918234592
I1115 21:32:01.893018   196 layer_factory.hpp:77] Creating layer conv7_2_mbox_loc
I1115 21:32:01.893028   196 net.cpp:91] Creating Layer conv7_2_mbox_loc
I1115 21:32:01.893033   196 net.cpp:425] conv7_2_mbox_loc <- conv7_2_conv7_2_relu_0_split_1
I1115 21:32:01.893041   196 net.cpp:399] conv7_2_mbox_loc -> conv7_2_mbox_loc
I1115 21:32:01.894165   196 net.cpp:141] Setting up conv7_2_mbox_loc
I1115 21:32:01.894176   196 net.cpp:148] Top shape: 32 16 5 5 (12800)
I1115 21:32:01.894181   196 net.cpp:156] Memory required for data: 7918285792
I1115 21:32:01.894188   196 layer_factory.hpp:77] Creating layer conv7_2_mbox_loc_perm
I1115 21:32:01.894197   196 net.cpp:91] Creating Layer conv7_2_mbox_loc_perm
I1115 21:32:01.894204   196 net.cpp:425] conv7_2_mbox_loc_perm <- conv7_2_mbox_loc
I1115 21:32:01.894212   196 net.cpp:399] conv7_2_mbox_loc_perm -> conv7_2_mbox_loc_perm
I1115 21:32:01.894320   196 net.cpp:141] Setting up conv7_2_mbox_loc_perm
I1115 21:32:01.894326   196 net.cpp:148] Top shape: 32 5 5 16 (12800)
I1115 21:32:01.894330   196 net.cpp:156] Memory required for data: 7918336992
I1115 21:32:01.894335   196 layer_factory.hpp:77] Creating layer conv7_2_mbox_loc_flat
I1115 21:32:01.894345   196 net.cpp:91] Creating Layer conv7_2_mbox_loc_flat
I1115 21:32:01.894351   196 net.cpp:425] conv7_2_mbox_loc_flat <- conv7_2_mbox_loc_perm
I1115 21:32:01.894356   196 net.cpp:399] conv7_2_mbox_loc_flat -> conv7_2_mbox_loc_flat
I1115 21:32:01.894385   196 net.cpp:141] Setting up conv7_2_mbox_loc_flat
I1115 21:32:01.894392   196 net.cpp:148] Top shape: 32 400 (12800)
I1115 21:32:01.894394   196 net.cpp:156] Memory required for data: 7918388192
I1115 21:32:01.894399   196 layer_factory.hpp:77] Creating layer conv7_2_mbox_conf
I1115 21:32:01.894413   196 net.cpp:91] Creating Layer conv7_2_mbox_conf
I1115 21:32:01.894418   196 net.cpp:425] conv7_2_mbox_conf <- conv7_2_conv7_2_relu_0_split_2
I1115 21:32:01.894425   196 net.cpp:399] conv7_2_mbox_conf -> conv7_2_mbox_conf
I1115 21:32:01.895437   196 net.cpp:141] Setting up conv7_2_mbox_conf
I1115 21:32:01.895447   196 net.cpp:148] Top shape: 32 8 5 5 (6400)
I1115 21:32:01.895453   196 net.cpp:156] Memory required for data: 7918413792
I1115 21:32:01.895462   196 layer_factory.hpp:77] Creating layer conv7_2_mbox_conf_perm
I1115 21:32:01.895483   196 net.cpp:91] Creating Layer conv7_2_mbox_conf_perm
I1115 21:32:01.895489   196 net.cpp:425] conv7_2_mbox_conf_perm <- conv7_2_mbox_conf
I1115 21:32:01.895496   196 net.cpp:399] conv7_2_mbox_conf_perm -> conv7_2_mbox_conf_perm
I1115 21:32:01.895599   196 net.cpp:141] Setting up conv7_2_mbox_conf_perm
I1115 21:32:01.895607   196 net.cpp:148] Top shape: 32 5 5 8 (6400)
I1115 21:32:01.895612   196 net.cpp:156] Memory required for data: 7918439392
I1115 21:32:01.895615   196 layer_factory.hpp:77] Creating layer conv7_2_mbox_conf_flat
I1115 21:32:01.895632   196 net.cpp:91] Creating Layer conv7_2_mbox_conf_flat
I1115 21:32:01.895639   196 net.cpp:425] conv7_2_mbox_conf_flat <- conv7_2_mbox_conf_perm
I1115 21:32:01.895648   196 net.cpp:399] conv7_2_mbox_conf_flat -> conv7_2_mbox_conf_flat
I1115 21:32:01.895674   196 net.cpp:141] Setting up conv7_2_mbox_conf_flat
I1115 21:32:01.895681   196 net.cpp:148] Top shape: 32 200 (6400)
I1115 21:32:01.895685   196 net.cpp:156] Memory required for data: 7918464992
I1115 21:32:01.895690   196 layer_factory.hpp:77] Creating layer conv7_2_mbox_priorbox
I1115 21:32:01.895699   196 net.cpp:91] Creating Layer conv7_2_mbox_priorbox
I1115 21:32:01.895704   196 net.cpp:425] conv7_2_mbox_priorbox <- conv7_2_conv7_2_relu_0_split_3
I1115 21:32:01.895709   196 net.cpp:425] conv7_2_mbox_priorbox <- data_data_0_split_4
I1115 21:32:01.895716   196 net.cpp:399] conv7_2_mbox_priorbox -> conv7_2_mbox_priorbox
I1115 21:32:01.895745   196 net.cpp:141] Setting up conv7_2_mbox_priorbox
I1115 21:32:01.895752   196 net.cpp:148] Top shape: 1 2 400 (800)
I1115 21:32:01.895756   196 net.cpp:156] Memory required for data: 7918468192
I1115 21:32:01.895761   196 layer_factory.hpp:77] Creating layer conv8_2_mbox_loc
I1115 21:32:01.895772   196 net.cpp:91] Creating Layer conv8_2_mbox_loc
I1115 21:32:01.895777   196 net.cpp:425] conv8_2_mbox_loc <- conv8_2_conv8_2_relu_0_split_1
I1115 21:32:01.895784   196 net.cpp:399] conv8_2_mbox_loc -> conv8_2_mbox_loc
I1115 21:32:01.896837   196 net.cpp:141] Setting up conv8_2_mbox_loc
I1115 21:32:01.896847   196 net.cpp:148] Top shape: 32 16 3 3 (4608)
I1115 21:32:01.896853   196 net.cpp:156] Memory required for data: 7918486624
I1115 21:32:01.896863   196 layer_factory.hpp:77] Creating layer conv8_2_mbox_loc_perm
I1115 21:32:01.896873   196 net.cpp:91] Creating Layer conv8_2_mbox_loc_perm
I1115 21:32:01.896889   196 net.cpp:425] conv8_2_mbox_loc_perm <- conv8_2_mbox_loc
I1115 21:32:01.896898   196 net.cpp:399] conv8_2_mbox_loc_perm -> conv8_2_mbox_loc_perm
I1115 21:32:01.897001   196 net.cpp:141] Setting up conv8_2_mbox_loc_perm
I1115 21:32:01.897008   196 net.cpp:148] Top shape: 32 3 3 16 (4608)
I1115 21:32:01.897012   196 net.cpp:156] Memory required for data: 7918505056
I1115 21:32:01.897018   196 layer_factory.hpp:77] Creating layer conv8_2_mbox_loc_flat
I1115 21:32:01.897027   196 net.cpp:91] Creating Layer conv8_2_mbox_loc_flat
I1115 21:32:01.897032   196 net.cpp:425] conv8_2_mbox_loc_flat <- conv8_2_mbox_loc_perm
I1115 21:32:01.897039   196 net.cpp:399] conv8_2_mbox_loc_flat -> conv8_2_mbox_loc_flat
I1115 21:32:01.897066   196 net.cpp:141] Setting up conv8_2_mbox_loc_flat
I1115 21:32:01.897075   196 net.cpp:148] Top shape: 32 144 (4608)
I1115 21:32:01.897079   196 net.cpp:156] Memory required for data: 7918523488
I1115 21:32:01.897091   196 layer_factory.hpp:77] Creating layer conv8_2_mbox_conf
I1115 21:32:01.897104   196 net.cpp:91] Creating Layer conv8_2_mbox_conf
I1115 21:32:01.897111   196 net.cpp:425] conv8_2_mbox_conf <- conv8_2_conv8_2_relu_0_split_2
I1115 21:32:01.897122   196 net.cpp:399] conv8_2_mbox_conf -> conv8_2_mbox_conf
I1115 21:32:01.898116   196 net.cpp:141] Setting up conv8_2_mbox_conf
I1115 21:32:01.898126   196 net.cpp:148] Top shape: 32 8 3 3 (2304)
I1115 21:32:01.898131   196 net.cpp:156] Memory required for data: 7918532704
I1115 21:32:01.898141   196 layer_factory.hpp:77] Creating layer conv8_2_mbox_conf_perm
I1115 21:32:01.898151   196 net.cpp:91] Creating Layer conv8_2_mbox_conf_perm
I1115 21:32:01.898159   196 net.cpp:425] conv8_2_mbox_conf_perm <- conv8_2_mbox_conf
I1115 21:32:01.898167   196 net.cpp:399] conv8_2_mbox_conf_perm -> conv8_2_mbox_conf_perm
I1115 21:32:01.898265   196 net.cpp:141] Setting up conv8_2_mbox_conf_perm
I1115 21:32:01.898272   196 net.cpp:148] Top shape: 32 3 3 8 (2304)
I1115 21:32:01.898275   196 net.cpp:156] Memory required for data: 7918541920
I1115 21:32:01.898282   196 layer_factory.hpp:77] Creating layer conv8_2_mbox_conf_flat
I1115 21:32:01.898288   196 net.cpp:91] Creating Layer conv8_2_mbox_conf_flat
I1115 21:32:01.898303   196 net.cpp:425] conv8_2_mbox_conf_flat <- conv8_2_mbox_conf_perm
I1115 21:32:01.898309   196 net.cpp:399] conv8_2_mbox_conf_flat -> conv8_2_mbox_conf_flat
I1115 21:32:01.898349   196 net.cpp:141] Setting up conv8_2_mbox_conf_flat
I1115 21:32:01.898355   196 net.cpp:148] Top shape: 32 72 (2304)
I1115 21:32:01.898358   196 net.cpp:156] Memory required for data: 7918551136
I1115 21:32:01.898362   196 layer_factory.hpp:77] Creating layer conv8_2_mbox_priorbox
I1115 21:32:01.898372   196 net.cpp:91] Creating Layer conv8_2_mbox_priorbox
I1115 21:32:01.898378   196 net.cpp:425] conv8_2_mbox_priorbox <- conv8_2_conv8_2_relu_0_split_3
I1115 21:32:01.898385   196 net.cpp:425] conv8_2_mbox_priorbox <- data_data_0_split_5
I1115 21:32:01.898392   196 net.cpp:399] conv8_2_mbox_priorbox -> conv8_2_mbox_priorbox
I1115 21:32:01.898432   196 net.cpp:141] Setting up conv8_2_mbox_priorbox
I1115 21:32:01.898438   196 net.cpp:148] Top shape: 1 2 144 (288)
I1115 21:32:01.898442   196 net.cpp:156] Memory required for data: 7918552288
I1115 21:32:01.898448   196 layer_factory.hpp:77] Creating layer pool6_mbox_loc
I1115 21:32:01.898459   196 net.cpp:91] Creating Layer pool6_mbox_loc
I1115 21:32:01.898465   196 net.cpp:425] pool6_mbox_loc <- pool6_pool6_0_split_0
I1115 21:32:01.898475   196 net.cpp:399] pool6_mbox_loc -> pool6_mbox_loc
I1115 21:32:01.899586   196 net.cpp:141] Setting up pool6_mbox_loc
I1115 21:32:01.899597   196 net.cpp:148] Top shape: 32 16 1 1 (512)
I1115 21:32:01.899601   196 net.cpp:156] Memory required for data: 7918554336
I1115 21:32:01.899618   196 layer_factory.hpp:77] Creating layer pool6_mbox_loc_perm
I1115 21:32:01.899627   196 net.cpp:91] Creating Layer pool6_mbox_loc_perm
I1115 21:32:01.899633   196 net.cpp:425] pool6_mbox_loc_perm <- pool6_mbox_loc
I1115 21:32:01.899641   196 net.cpp:399] pool6_mbox_loc_perm -> pool6_mbox_loc_perm
I1115 21:32:01.899735   196 net.cpp:141] Setting up pool6_mbox_loc_perm
I1115 21:32:01.899744   196 net.cpp:148] Top shape: 32 1 1 16 (512)
I1115 21:32:01.899747   196 net.cpp:156] Memory required for data: 7918556384
I1115 21:32:01.899752   196 layer_factory.hpp:77] Creating layer pool6_mbox_loc_flat
I1115 21:32:01.899763   196 net.cpp:91] Creating Layer pool6_mbox_loc_flat
I1115 21:32:01.899768   196 net.cpp:425] pool6_mbox_loc_flat <- pool6_mbox_loc_perm
I1115 21:32:01.899775   196 net.cpp:399] pool6_mbox_loc_flat -> pool6_mbox_loc_flat
I1115 21:32:01.899814   196 net.cpp:141] Setting up pool6_mbox_loc_flat
I1115 21:32:01.899822   196 net.cpp:148] Top shape: 32 16 (512)
I1115 21:32:01.899827   196 net.cpp:156] Memory required for data: 7918558432
I1115 21:32:01.899833   196 layer_factory.hpp:77] Creating layer pool6_mbox_conf
I1115 21:32:01.899845   196 net.cpp:91] Creating Layer pool6_mbox_conf
I1115 21:32:01.899850   196 net.cpp:425] pool6_mbox_conf <- pool6_pool6_0_split_1
I1115 21:32:01.899855   196 net.cpp:399] pool6_mbox_conf -> pool6_mbox_conf
I1115 21:32:01.900871   196 net.cpp:141] Setting up pool6_mbox_conf
I1115 21:32:01.900882   196 net.cpp:148] Top shape: 32 8 1 1 (256)
I1115 21:32:01.900887   196 net.cpp:156] Memory required for data: 7918559456
I1115 21:32:01.900897   196 layer_factory.hpp:77] Creating layer pool6_mbox_conf_perm
I1115 21:32:01.900905   196 net.cpp:91] Creating Layer pool6_mbox_conf_perm
I1115 21:32:01.900923   196 net.cpp:425] pool6_mbox_conf_perm <- pool6_mbox_conf
I1115 21:32:01.900933   196 net.cpp:399] pool6_mbox_conf_perm -> pool6_mbox_conf_perm
I1115 21:32:01.901031   196 net.cpp:141] Setting up pool6_mbox_conf_perm
I1115 21:32:01.901039   196 net.cpp:148] Top shape: 32 1 1 8 (256)
I1115 21:32:01.901046   196 net.cpp:156] Memory required for data: 7918560480
I1115 21:32:01.901051   196 layer_factory.hpp:77] Creating layer pool6_mbox_conf_flat
I1115 21:32:01.901058   196 net.cpp:91] Creating Layer pool6_mbox_conf_flat
I1115 21:32:01.901063   196 net.cpp:425] pool6_mbox_conf_flat <- pool6_mbox_conf_perm
I1115 21:32:01.901072   196 net.cpp:399] pool6_mbox_conf_flat -> pool6_mbox_conf_flat
I1115 21:32:01.901111   196 net.cpp:141] Setting up pool6_mbox_conf_flat
I1115 21:32:01.901118   196 net.cpp:148] Top shape: 32 8 (256)
I1115 21:32:01.901123   196 net.cpp:156] Memory required for data: 7918561504
I1115 21:32:01.901129   196 layer_factory.hpp:77] Creating layer pool6_mbox_priorbox
I1115 21:32:01.901135   196 net.cpp:91] Creating Layer pool6_mbox_priorbox
I1115 21:32:01.901141   196 net.cpp:425] pool6_mbox_priorbox <- pool6_pool6_0_split_2
I1115 21:32:01.901147   196 net.cpp:425] pool6_mbox_priorbox <- data_data_0_split_6
I1115 21:32:01.901154   196 net.cpp:399] pool6_mbox_priorbox -> pool6_mbox_priorbox
I1115 21:32:01.901185   196 net.cpp:141] Setting up pool6_mbox_priorbox
I1115 21:32:01.901191   196 net.cpp:148] Top shape: 1 2 16 (32)
I1115 21:32:01.901196   196 net.cpp:156] Memory required for data: 7918561632
I1115 21:32:01.901201   196 layer_factory.hpp:77] Creating layer mbox_loc
I1115 21:32:01.901212   196 net.cpp:91] Creating Layer mbox_loc
I1115 21:32:01.901218   196 net.cpp:425] mbox_loc <- conv4_3_norm_mbox_loc_flat
I1115 21:32:01.901226   196 net.cpp:425] mbox_loc <- fc7_mbox_loc_flat
I1115 21:32:01.901232   196 net.cpp:425] mbox_loc <- conv6_2_mbox_loc_flat
I1115 21:32:01.901237   196 net.cpp:425] mbox_loc <- conv7_2_mbox_loc_flat
I1115 21:32:01.901243   196 net.cpp:425] mbox_loc <- conv8_2_mbox_loc_flat
I1115 21:32:01.901249   196 net.cpp:425] mbox_loc <- pool6_mbox_loc_flat
I1115 21:32:01.901258   196 net.cpp:399] mbox_loc -> mbox_loc
I1115 21:32:01.901289   196 net.cpp:141] Setting up mbox_loc
I1115 21:32:01.901296   196 net.cpp:148] Top shape: 32 19488 (623616)
I1115 21:32:01.901300   196 net.cpp:156] Memory required for data: 7921056096
I1115 21:32:01.901305   196 layer_factory.hpp:77] Creating layer mbox_conf
I1115 21:32:01.901314   196 net.cpp:91] Creating Layer mbox_conf
I1115 21:32:01.901319   196 net.cpp:425] mbox_conf <- conv4_3_norm_mbox_conf_flat
I1115 21:32:01.901348   196 net.cpp:425] mbox_conf <- fc7_mbox_conf_flat
I1115 21:32:01.901355   196 net.cpp:425] mbox_conf <- conv6_2_mbox_conf_flat
I1115 21:32:01.901363   196 net.cpp:425] mbox_conf <- conv7_2_mbox_conf_flat
I1115 21:32:01.901368   196 net.cpp:425] mbox_conf <- conv8_2_mbox_conf_flat
I1115 21:32:01.901373   196 net.cpp:425] mbox_conf <- pool6_mbox_conf_flat
I1115 21:32:01.901381   196 net.cpp:399] mbox_conf -> mbox_conf
I1115 21:32:01.901407   196 net.cpp:141] Setting up mbox_conf
I1115 21:32:01.901414   196 net.cpp:148] Top shape: 32 9744 (311808)
I1115 21:32:01.901419   196 net.cpp:156] Memory required for data: 7922303328
I1115 21:32:01.901424   196 layer_factory.hpp:77] Creating layer mbox_priorbox
I1115 21:32:01.901432   196 net.cpp:91] Creating Layer mbox_priorbox
I1115 21:32:01.901443   196 net.cpp:425] mbox_priorbox <- conv4_3_norm_mbox_priorbox
I1115 21:32:01.901449   196 net.cpp:425] mbox_priorbox <- fc7_mbox_priorbox
I1115 21:32:01.901455   196 net.cpp:425] mbox_priorbox <- conv6_2_mbox_priorbox
I1115 21:32:01.901461   196 net.cpp:425] mbox_priorbox <- conv7_2_mbox_priorbox
I1115 21:32:01.901468   196 net.cpp:425] mbox_priorbox <- conv8_2_mbox_priorbox
I1115 21:32:01.901474   196 net.cpp:425] mbox_priorbox <- pool6_mbox_priorbox
I1115 21:32:01.901480   196 net.cpp:399] mbox_priorbox -> mbox_priorbox
I1115 21:32:01.901507   196 net.cpp:141] Setting up mbox_priorbox
I1115 21:32:01.901515   196 net.cpp:148] Top shape: 1 2 19488 (38976)
I1115 21:32:01.901517   196 net.cpp:156] Memory required for data: 7922459232
I1115 21:32:01.901522   196 layer_factory.hpp:77] Creating layer mbox_loss
I1115 21:32:01.901532   196 net.cpp:91] Creating Layer mbox_loss
I1115 21:32:01.901537   196 net.cpp:425] mbox_loss <- mbox_loc
I1115 21:32:01.901542   196 net.cpp:425] mbox_loss <- mbox_conf
I1115 21:32:01.901547   196 net.cpp:425] mbox_loss <- mbox_priorbox
…
name: "VGG_SSD_300x300_start100_test"
state {
  phase: TEST
}
layer {
  name: "data"
  type: "AnnotatedData"
  top: "data"
  top: "label"
  include {
    phase: TEST
  }
  transform_param {
    mean_value: 104
    mean_value: 117
    mean_value: 123
    resize_param {
      prob: 1
      resize_mode: WARP
      height: 300
      width: 300
      interp_mode: LINEAR
    }
  }
  data_param {
    source: "examples/cola/cola_test_lmdb"
    batch_size: 1
    backend: LMDB
  }
  annotated_data_param {
    batch_sampler {
    }
    label_map_file: "data/cola/labelmap_voc.prototxt"
  }
}
layer {
  name: "conv1_1"
  type: "Convolution"
  bottom: "data"
  top: "conv1_1"
  param {
    lr_mult: 0
    decay_mult: 0
  }
  param {
    lr_mult: 0
    decay_mult: 0
  }
  convolution_param {
    num_output: 64
    pad: 1
    kernel_size: 3
    weight_filler {
      type: "xavier"
    }
    bias_filler {
      type: "constant"
      value: 0
    }
  }
}
layer {
  name: "relu1_1"
  type: "ReLU"
  bottom: "conv1_1"
  top: "conv1_1"
}
layer {
  name: "conv1_2"
  type: "Convolution"
  bottom: "conv1_1"
  top: "conv1_2"
  param {
    lr_mult: 0
    decay_mult: 0
  }
  param {
    lr_mult: 0
    decay_mult: 0
  }
  convolution_param {
    num_output: 64
    pad: 1
    kernel_size: 3
    weight_filler {
      type: "xavier"
    }
    bias_filler {
      type: "constant"
      value: 0
    }
  }
}
layer {
  name: "relu1_2"
  type: "ReLU"
  bottom: "conv1_2"
  top: "conv1_2"
}
layer {
  name: "pool1"
  type: "Pooling"
  bottom: "conv1_2"
  top: "pool1"
  pooling_param {
    pool: MAX
    kernel_size: 2
    stride: 2
  }
}
layer {
  name: "conv2_1"
  type: "Convolution"
  bottom: "pool1"
  top: "conv2_1"
  param {
    lr_mult: 0
    decay_mult: 0
  }
  param {
    lr_mult: 0
    decay_mult: 0
  }
  convolution_param {
    num_output: 128
    pad: 1
    kernel_size: 3
    weight_filler {
      type: "xavier"
    }
    bias_filler {
      type: "constant"
      value: 0
    }
  }
}
layer {
  name: "relu2_1"
  type: "ReLU"
  bottom: "conv2_1"
  top: "conv2_1"
}
layer {
  name: "conv2_2"
  type: "Convolution"
  bottom: "conv2_1"
  top: "conv2_2"
  param {
    lr_mult: 0
    decay_mult: 0
  }
  param {
    lr_mult: 0
    decay_mult: 0
  }
  convolution_param {
    num_output: 128
    pad: 1
    kernel_size: 3
    weight_filler {
      type: "xavier"
    }
    bias_filler {
      type: "constant"
      value: 0
    }
  }
}
layer {
  name: "relu2_2"
  type: "ReLU"
  bottom: "conv2_2"
  top: "conv2_2"
}
layer {
  name: "pool2"
  type: "Pooling"
  bottom: "conv2_2"
  top: "pool2"
  pooling_param {
    pool: MAX
    kernel_size: 2
    stride: 2
  }
}
layer {
  name: "conv3_1"
  type: "Convolution"
  bottom: "pool2"
  top: "conv3_1"
  param {
    lr_mult: 1
    decay_mult: 1
  }
  param {
    lr_mult: 2
    decay_mult: 0
  }
  convolution_param {
    num_output: 256
    pad: 1
    kernel_size: 3
    weight_filler {
      type: "xavier"
    }
    bias_filler {
      type: "constant"
      value: 0
    }
  }
}
layer {
  name: "relu3_1"
  type: "ReLU"
  bottom: "conv3_1"
  top: "conv3_1"
}
layer {
  name: "conv3_2"
  type: "Convolution"
  bottom: "conv3_1"
  top: "conv3_2"
  param {
    lr_mult: 1
    decay_mult: 1
  }
  param {
    lr_mult: 2
    decay_mult: 0
  }
  convolution_param {
    num_output: 256
    pad: 1
    kernel_size: 3
    weight_filler {
      type: "xavier"
    }
    bias_filler {
      type: "constant"
      value: 0
    }
  }
}
layer {
  name: "relu3_2"
  type: "ReLU"
  bottom: "conv3_2"
  top: "conv3_2"
}
layer {
  name: "conv3_3"
  type: "Convolution"
  bottom: "conv3_2"
  top: "conv3_3"
  param {
    lr_mult: 1
    decay_mult: 1
  }
  param {
    lr_mult: 2
    decay_mult: 0
  }
  convolution_param {
    num_output: 256
    pad: 1
    kernel_size: 3
    weight_filler {
      type: "xavier"
    }
    bias_filler {
      type: "constant"
      value: 0
    }
  }
}
layer {
  name: "relu3_3"
  type: "ReLU"
  bottom: "conv3_3"
  top: "conv3_3"
}
layer {
  name: "pool3"
  type: "Pooling"
  bottom: "conv3_3"
  top: "pool3"
  pooling_param {
    pool: MAX
    kernel_size: 2
    stride: 2
  }
}
layer {
  name: "conv4_1"
  type: "Convolution"
  bottom: "pool3"
  top: "conv4_1"
  param {
    lr_mult: 1
    decay_mult: 1
  }
  param {
    lr_mult: 2
    decay_mult: 0
  }
  convolution_param {
    num_output: 512
    pad: 1
    kernel_size: 3
    weight_filler {
      type: "xavier"
    }
    bias_filler {
      type: "constant"
      value: 0
    }
  }
}
layer {
  name: "relu4_1"
  type: "ReLU"
  bottom: "conv4_1"
  top: "conv4_1"
}
layer {
  name: "conv4_2"
  type: "Convolution"
  bottom: "conv4_1"
  top: "conv4_2"
  param {
    lr_mult: 1
    decay_mult: 1
  }
  param {
    lr_mult: 2
    decay_mult: 0
  }
  convolution_param {
    num_output: 512
    pad: 1
    kernel_size: 3
    weight_filler {
      type: "xavier"
    }
    bias_filler {
      type: "constant"
      value: 0
    }
  }
}
layer {
  name: "relu4_2"
  type: "ReLU"
  bottom: "conv4_2"
  top: "conv4_2"
}
layer {
  name: "conv4_3"
  type: "Convolution"
  bottom: "conv4_2"
  top: "conv4_3"
  param {
    lr_mult: 1
    decay_mult: 1
  }
  param {
    lr_mult: 2
    decay_mult: 0
  }
  convolution_param {
    num_output: 512
    pad: 1
    kernel_size: 3
    weight_filler {
      type: "xavier"
    }
    bias_filler {
      type: "constant"
      value: 0
    }
  }
}
layer {
  name: "relu4_3"
  type: "ReLU"
  bottom: "conv4_3"
  top: "conv4_3"
}
layer {
  name: "pool4"
  type: "Pooling"
  bottom: "conv4_3"
  top: "pool4"
  pooling_param {
    pool: MAX
    kernel_size: 2
    stride: 2
  }
}
layer {
  name: "conv5_1"
  type: "Convolution"
  bottom: "pool4"
  top: "conv5_1"
  param {
    lr_mult: 1
    decay_mult: 1
  }
  param {
    lr_mult: 2
    decay_mult: 0
  }
  convolution_param {
    num_output: 512
    pad: 1
    kernel_size: 3
    weight_filler {
      type: "xavier"
    }
    bias_filler {
      type: "constant"
      value: 0
    }
  }
}
layer {
  name: "relu5_1"
  type: "ReLU"
  bottom: "conv5_1"
  top: "conv5_1"
}
layer {
  name: "conv5_2"
  type: "Convolution"
  bottom: "conv5_1"
  top: "conv5_2"
  param {
    lr_mult: 1
    decay_mult: 1
  }
  param {
    lr_mult: 2
    decay_mult: 0
  }
  convolution_param {
    num_output: 512
    pad: 1
    kernel_size: 3
    weight_filler {
      type: "xavier"
    }
    bias_filler {
      type: "constant"
      value: 0
    }
  }
}
layer {
  name: "relu5_2"
  type: "ReLU"
  bottom: "conv5_2"
  top: "conv5_2"
}
layer {
  name: "conv5_3"
  type: "Convolution"
  bottom: "conv5_2"
  top: "conv5_3"
  param {
    lr_mult: 1
    decay_mult: 1
  }
  param {
    lr_mult: 2
    decay_mult: 0
  }
  convolution_param {
    num_output: 512
    pad: 1
    kernel_size: 3
    weight_filler {
      type: "xavier"
    }
    bias_filler {
      type: "constant"
      value: 0
    }
  }
}
layer {
  name: "relu5_3"
  type: "ReLU"
  bottom: "conv5_3"
  top: "conv5_3"
}
layer {
  name: "pool5"
  type: "Pooling"
  bottom: "conv5_3"
  top: "pool5"
  pooling_param {
    pool: MAX
    kernel_size: 3
    stride: 1
    pad: 1
  }
}
layer {
  name: "fc6"
  type: "Convolution"
  bottom: "pool5"
  top: "fc6"
  param {
    lr_mult: 1
    decay_mult: 1
  }
  param {
    lr_mult: 2
    decay_mult: 0
  }
  convolution_param {
    num_output: 1024
    pad: 6
    kernel_size: 3
    weight_filler {
      type: "xavier"
    }
    bias_filler {
      type: "constant"
      value: 0
    }
    dilation: 6
  }
}
layer {
  name: "relu6"
  type: "ReLU"
  bottom: "fc6"
  top: "fc6"
}
layer {
  name: "fc7"
  type: "Convolution"
  bottom: "fc6"
  top: "fc7"
  param {
    lr_mult: 1
    decay_mult: 1
  }
  param {
    lr_mult: 2
    decay_mult: 0
  }
  convolution_param {
    num_output: 1024
    kernel_size: 1
    weight_filler {
      type: "xavier"
    }
    bias_filler {
      type: "constant"
      value: 0
    }
  }
}
layer {
  name: "relu7"
  type: "ReLU"
  bottom: "fc7"
  top: "fc7"
}
layer {
  name: "conv6_1"
  type: "Convolution"
  bottom: "fc7"
  top: "conv6_1"
  param {
    lr_mult: 1
    decay_mult: 1
  }
  param {
    lr_mult: 2
    decay_mult: 0
  }
  convolution_param {
    num_output: 256
    pad: 0
    kernel_size: 1
    stride: 1
    weight_filler {
      type: "xavier"
    }
    bias_filler {
      type: "constant"
      value: 0
    }
  }
}
layer {
  name: "conv6_1_relu"
  type: "ReLU"
  bottom: "conv6_1"
  top: "conv6_1"
}
layer {
  name: "conv6_2"
  type: "Convolution"
  bottom: "conv6_1"
  top: "conv6_2"
  param {
    lr_mult: 1
    decay_mult: 1
  }
  param {
    lr_mult: 2
    decay_mult: 0
  }
  convolution_param {
    num_output: 512
    pad: 1
    kernel_size: 3
    stride: 2
    weight_filler {
      type: "xavier"
    }
    bias_filler {
      type: "constant"
      value: 0
    }
  }
}
layer {
  name: "conv6_2_relu"
  type: "ReLU"
  bottom: "conv6_2"
  top: "conv6_2"
}
layer {
  name: "conv7_1"
  type: "Convolution"
  bottom: "conv6_2"
  top: "conv7_1"
  param {
    lr_mult: 1
    decay_mult: 1
  }
  param {
    lr_mult: 2
    decay_mult: 0
  }
  convolution_param {
    num_output: 128
    pad: 0
    kernel_size: 1
    stride: 1
    weight_filler {
      type: "xavier"
    }
    bias_filler {
      type: "constant"
      value: 0
    }
  }
}
layer {
  name: "conv7_1_relu"
  type: "ReLU"
  bottom: "conv7_1"
  top: "conv7_1"
}
layer {
  name: "conv7_2"
  type: "Convolution"
  bottom: "conv7_1"
  top: "conv7_2"
  param {
    lr_mult: 1
    decay_mult: 1
  }
  param {
    lr_mult: 2
    decay_mult: 0
  }
  convolution_param {
    num_output: 256
    pad: 1
    kernel_size: 3
    stride: 2
    weight_filler {
      type: "xavier"
    }
    bias_filler {
      type: "constant"
      value: 0
    }
  }
}
layer {
  name: "conv7_2_relu"
  type: "ReLU"
  bottom: "conv7_2"
  top: "conv7_2"
}
layer {
  name: "conv8_1"
  type: "Convolution"
  bottom: "conv7_2"
  top: "conv8_1"
  param {
    lr_mult: 1
    decay_mult: 1
  }
  param {
    lr_mult: 2
    decay_mult: 0
  }
  convolution_param {
    num_output: 128
    pad: 0
    kernel_size: 1
    stride: 1
    weight_filler {
      type: "xavier"
    }
    bias_filler {
      type: "constant"
      value: 0
    }
  }
}
layer {
  name: "conv8_1_relu"
  type: "ReLU"
  bottom: "conv8_1"
  top: "conv8_1"
}
layer {
  name: "conv8_2"
  type: "Convolution"
  bottom: "conv8_1"
  top: "conv8_2"
  param {
    lr_mult: 1
    decay_mult: 1
  }
  param {
    lr_mult: 2
    decay_mult: 0
  }
  convolution_param {
    num_output: 256
    pad: 1
    kernel_size: 3
    stride: 2
    weight_filler {
      type: "xavier"
    }
    bias_filler {
      type: "constant"
      value: 0
    }
  }
}
layer {
  name: "conv8_2_relu"
  type: "ReLU"
  bottom: "conv8_2"
  top: "conv8_2"
}
layer {
  name: "pool6"
  type: "Pooling"
  bottom: "conv8_2"
  top: "pool6"
  pooling_param {
    pool: AVE
    global_pooling: true
  }
}
layer {
  name: "conv4_3_norm"
  type: "Normalize"
  bottom: "conv4_3"
  top: "conv4_3_norm"
  norm_param {
    across_spatial: false
    scale_filler {
      type: "constant"
      value: 20
    }
    channel_shared: false
  }
}
layer {
  name: "conv4_3_norm_mbox_loc"
  type: "Convolution"
  bottom: "conv4_3_norm"
  top: "conv4_3_norm_mbox_loc"
  param {
    lr_mult: 1
    decay_mult: 1
  }
  param {
    lr_mult: 2
    decay_mult: 0
  }
  convolution_param {
    num_output: 8
    pad: 1
    kernel_size: 3
    stride: 1
    weight_filler {
      type: "xavier"
    }
    bias_filler {
      type: "constant"
      value: 0
    }
  }
}
layer {
  name: "conv4_3_norm_mbox_loc_perm"
  type: "Permute"
  bottom: "conv4_3_norm_mbox_loc"
  top: "conv4_3_norm_mbox_loc_perm"
  permute_param {
    order: 0
    order: 2
    order: 3
    order: 1
  }
}
layer {
  name: "conv4_3_norm_mbox_loc_flat"
  type: "Flatten"
  bottom: "conv4_3_norm_mbox_loc_perm"
  top: "conv4_3_norm_mbox_loc_flat"
  flatten_param {
    axis: 1
  }
}
layer {
  name: "conv4_3_norm_mbox_conf"
  type: "Convolution"
  bottom: "conv4_3_norm"
  top: "conv4_3_norm_mbox_conf"
  param {
    lr_mult: 1
    decay_mult: 1
  }
  param {
    lr_mult: 2
    decay_mult: 0
  }
  convolution_param {
    num_output: 4
    pad: 1
    kernel_size: 3
    stride: 1
    weight_filler {
      type: "xavier"
    }
    bias_filler {
      type: "constant"
      value: 0
    }
  }
}
layer {
  name: "conv4_3_norm_mbox_conf_perm"
  type: "Permute"
  bottom: "conv4_3_norm_mbox_conf"
  top: "conv4_3_norm_mbox_conf_perm"
  permute_param {
    order: 0
    order: 2
    order: 3
    order: 1
  }
}
layer {
  name: "conv4_3_norm_mbox_conf_flat"
  type: "Flatten"
  bottom: "conv4_3_norm_mbox_conf_perm"
  top: "conv4_3_norm_mbox_conf_flat"
  flatten_param {
    axis: 1
  }
}
layer {
  name: "conv4_3_norm_mbox_priorbox"
  type: "PriorBox"
  bottom: "conv4_3_norm"
  bottom: "data"
  top: "conv4_3_norm_mbox_priorbox"
  prior_box_param {
    min_size: 30
    aspect_ratio: 2
    flip: false
    clip: true
    variance: 0.1
    variance: 0.1
    variance: 0.2
    variance: 0.2
  }
}
layer {
  name: "fc7_mbox_loc"
  type: "Convolution"
  bottom: "fc7"
  top: "fc7_mbox_loc"
  param {
    lr_mult: 1
    decay_mult: 1
  }
  param {
    lr_mult: 2
    decay_mult: 0
  }
  convolution_param {
    num_output: 16
    pad: 1
    kernel_size: 3
    stride: 1
    weight_filler {
      type: "xavier"
    }
    bias_filler {
      type: "constant"
      value: 0
    }
  }
}
layer {
  name: "fc7_mbox_loc_perm"
  type: "Permute"
  bottom: "fc7_mbox_loc"
  top: "fc7_mbox_loc_perm"
  permute_param {
    order: 0
    order: 2
    order: 3
    order: 1
  }
}
layer {
  name: "fc7_mbox_loc_flat"
  type: "Flatten"
  bottom: "fc7_mbox_loc_perm"
  top: "fc7_mbox_loc_flat"
  flatten_param {
    axis: 1
  }
}
layer {
  name: "fc7_mbox_conf"
  type: "Convolution"
  bottom: "fc7"
  top: "fc7_mbox_conf"
  param {
    lr_mult: 1
    decay_mult: 1
  }
  param {
    lr_mult: 2
    decay_mult: 0
  }
  convolution_param {
    num_output: 8
    pad: 1
    kernel_size: 3
    stride: 1
    weight_filler {
      type: "xavier"
    }
    bias_filler {
      type: "constant"
      value: 0
    }
  }
}
layer {
  name: "fc7_mbox_conf_perm"
  type: "Permute"
  bottom: "fc7_mbox_conf"
  top: "fc7_mbox_conf_perm"
  permute_param {
    order: 0
    order: 2
    order: 3
    order: 1
  }
}
layer {
  name: "fc7_mbox_conf_flat"
  type: "Flatten"
  bottom: "fc7_mbox_conf_perm"
  top: "fc7_mbox_conf_flat"
  flatten_param {
    axis: 1
  }
}
layer {
  name: "fc7_mbox_priorbox"
  type: "PriorBox"
  bottom: "fc7"
  bottom: "data"
  top: "fc7_mbox_priorbox"
  prior_box_param {
    min_size: 60
    max_size: 114
    aspect_ratio: 2
    aspect_ratio: 3
    flip: false
    clip: true
    variance: 0.1
    variance: 0.1
    variance: 0.2
    variance: 0.2
  }
}
layer {
  name: "conv6_2_mbox_loc"
  type: "Convolution"
  bottom: "conv6_2"
  top: "conv6_2_mbox_loc"
  param {
    lr_mult: 1
    decay_mult: 1
  }
  param {
    lr_mult: 2
    decay_mult: 0
  }
  convolution_param {
    num_output: 16
    pad: 1
    kernel_size: 3
    stride: 1
    weight_filler {
      type: "xavier"
    }
    bias_filler {
      type: "constant"
      value: 0
    }
  }
}
layer {
  name: "conv6_2_mbox_loc_perm"
  type: "Permute"
  bottom: "conv6_2_mbox_loc"
  top: "conv6_2_mbox_loc_perm"
  permute_param {
    order: 0
    order: 2
    order: 3
    order: 1
  }
}
layer {
  name: "conv6_2_mbox_loc_flat"
  type: "Flatten"
  bottom: "conv6_2_mbox_loc_perm"
  top: "conv6_2_mbox_loc_flat"
  flatten_param {
    axis: 1
  }
}
layer {
  name: "conv6_2_mbox_conf"
  type: "Convolution"
  bottom: "conv6_2"
  top: "conv6_2_mbox_conf"
  param {
    lr_mult: 1
    decay_mult: 1
  }
  param {
    lr_mult: 2
    decay_mult: 0
  }
  convolution_param {
    num_output: 8
    pad: 1
    kernel_size: 3
    stride: 1
    weight_filler {
      type: "xavier"
    }
    bias_filler {
      type: "constant"
      value: 0
    }
  }
}
layer {
  name: "conv6_2_mbox_conf_perm"
  type: "Permute"
  bottom: "conv6_2_mbox_conf"
  top: "conv6_2_mbox_conf_perm"
  permute_param {
    order: 0
    order: 2
    order: 3
    order: 1
  }
}
layer {
  name: "conv6_2_mbox_conf_flat"
  type: "Flatten"
  bottom: "conv6_2_mbox_conf_perm"
  top: "conv6_2_mbox_conf_flat"
  flatten_param {
    axis: 1
  }
}
layer {
  name: "conv6_2_mbox_priorbox"
  type: "PriorBox"
  bottom: "conv6_2"
  bottom: "data"
  top: "conv6_2_mbox_priorbox"
  prior_box_param {
    min_size: 114
    max_size: 168
    aspect_ratio: 2
    aspect_ratio: 3
    flip: false
    clip: true
    variance: 0.1
    variance: 0.1
    variance: 0.2
    variance: 0.2
  }
}
layer {
  name: "conv7_2_mbox_loc"
  type: "Convolution"
  bottom: "conv7_2"
  top: "conv7_2_mbox_loc"
  param {
    lr_mult: 1
    decay_mult: 1
  }
  param {
    lr_mult: 2
    decay_mult: 0
  }
  convolution_param {
    num_output: 16
    pad: 1
    kernel_size: 3
    stride: 1
    weight_filler {
      type: "xavier"
    }
    bias_filler {
      type: "constant"
      value: 0
    }
  }
}
layer {
  name: "conv7_2_mbox_loc_perm"
  type: "Permute"
  bottom: "conv7_2_mbox_loc"
  top: "conv7_2_mbox_loc_perm"
  permute_param {
    order: 0
    order: 2
    order: 3
    order: 1
  }
}
layer {
  name: "conv7_2_mbox_loc_flat"
  type: "Flatten"
  bottom: "conv7_2_mbox_loc_perm"
  top: "conv7_2_mbox_loc_flat"
  flatten_param {
    axis: 1
  }
}
layer {
  name: "conv7_2_mbox_conf"
  type: "Convolution"
  bottom: "conv7_2"
  top: "conv7_2_mbox_conf"
  param {
    lr_mult: 1
    decay_mult: 1
  }
  param {
    lr_mult: 2
    decay_mult: 0
  }
  convolution_param {
    num_output: 8
    pad: 1
    kernel_size: 3
    stride: 1
    weight_filler {
      type: "xavier"
    }
    bias_filler {
      type: "constant"
      value: 0
    }
  }
}
layer {
  name: "conv7_2_mbox_conf_perm"
  type: "Permute"
  bottom: "conv7_2_mbox_conf"
  top: "conv7_2_mbox_conf_perm"
  permute_param {
    order: 0
    order: 2
    order: 3
    order: 1
  }
}
layer {
  name: "conv7_2_mbox_conf_flat"
  type: "Flatten"
  bottom: "conv7_2_mbox_conf_perm"
  top: "conv7_2_mbox_conf_flat"
  flatten_param {
    axis: 1
  }
}
layer {
  name: "conv7_2_mbox_priorbox"
  type: "PriorBox"
  bottom: "conv7_2"
  bottom: "data"
  top: "conv7_2_mbox_priorbox"
  prior_box_param {
    min_size: 168
    max_size: 222
    aspect_ratio: 2
    aspect_ratio: 3
    flip: false
    clip: true
    variance: 0.1
    variance: 0.1
    variance: 0.2
    variance: 0.2
  }
}
layer {
  name: "conv8_2_mbox_loc"
  type: "Convolution"
  bottom: "conv8_2"
  top: "conv8_2_mbox_loc"
  param {
    lr_mult: 1
    decay_mult: 1
  }
  param {
    lr_mult: 2
    decay_mult: 0
  }
  convolution_param {
    num_output: 16
    pad: 1
    kernel_size: 3
    stride: 1
    weight_filler {
      type: "xavier"
    }
    bias_filler {
      type: "constant"
      value: 0
    }
  }
}
layer {
  name: "conv8_2_mbox_loc_perm"
  type: "Permute"
  bottom: "conv8_2_mbox_loc"
  top: "conv8_2_mbox_loc_perm"
  permute_param {
    order: 0
    order: 2
    order: 3
    order: 1
  }
}
layer {
  name: "conv8_2_mbox_loc_flat"
  type: "Flatten"
  bottom: "conv8_2_mbox_loc_perm"
  top: "conv8_2_mbox_loc_flat"
  flatten_param {
    axis: 1
  }
}
layer {
  name: "conv8_2_mbox_conf"
  type: "Convolution"
  bottom: "conv8_2"
  top: "conv8_2_mbox_conf"
  param {
    lr_mult: 1
    decay_mult: 1
  }
  param {
    lr_mult: 2
    decay_mult: 0
  }
  convolution_param {
    num_output: 8
    pad: 1
    kernel_size: 3
    stride: 1
    weight_filler {
      type: "xavier"
    }
    bias_filler {
      type: "constant"
      value: 0
    }
  }
}
layer {
  name: "conv8_2_mbox_conf_perm"
  type: "Permute"
  bottom: "conv8_2_mbox_conf"
  top: "conv8_2_mbox_conf_perm"
  permute_param {
    order: 0
    order: 2
    order: 3
    order: 1
  }
}
layer {
  name: "conv8_2_mbox_conf_flat"
  type: "Flatten"
  bottom: "conv8_2_mbox_conf_perm"
  top: "conv8_2_mbox_conf_flat"
  flatten_param {
    axis: 1
  }
}
layer {
  name: "conv8_2_mbox_priorbox"
  type: "PriorBox"
  bottom: "conv8_2"
  bottom: "data"
  top: "conv8_2_mbox_priorbox"
  prior_box_param {
    min_size: 222
    max_size: 276
    aspect_ratio: 2
    aspect_ratio: 3
    flip: false
    clip: true
    variance: 0.1
    variance: 0.1
    variance: 0.2
    variance: 0.2
  }
}
layer {
  name: "pool6_mbox_loc"
  type: "Convolution"
  bottom: "pool6"
  top: "pool6_mbox_loc"
  param {
    lr_mult: 1
    decay_mult: 1
  }
  param {
    lr_mult: 2
    decay_mult: 0
  }
  convolution_param {
    num_output: 16
    pad: 1
    kernel_size: 3
    stride: 1
    weight_filler {
      type: "xavier"
    }
    bias_filler {
      type: "constant"
      value: 0
    }
  }
}
layer {
  name: "pool6_mbox_loc_perm"
  type: "Permute"
  bottom: "pool6_mbox_loc"
  top: "pool6_mbox_loc_perm"
  permute_param {
    order: 0
    order: 2
    order: 3
    order: 1
  }
}
layer {
  name: "pool6_mbox_loc_flat"
  type: "Flatten"
  bottom: "pool6_mbox_loc_perm"
  top: "pool6_mbox_loc_flat"
  flatten_param {
    axis: 1
  }
}
layer {
  name: "pool6_mbox_conf"
  type: "Convolution"
  bottom: "pool6"
  top: "pool6_mbox_conf"
  param {
    lr_mult: 1
    decay_mult: 1
  }
  param {
    lr_mult: 2
    decay_mult: 0
  }
  convolution_param {
    num_output: 8
    pad: 1
    kernel_size: 3
    stride: 1
    weight_filler {
      type: "xavier"
    }
    bias_filler {
      type: "constant"
      value: 0
    }
  }
}
layer {
  name: "pool6_mbox_conf_perm"
  type: "Permute"
  bottom: "pool6_mbox_conf"
  top: "pool6_mbox_conf_perm"
  permute_param {
    order: 0
    order: 2
    order: 3
    order: 1
  }
}
layer {
  name: "pool6_mbox_conf_flat"
  type: "Flatten"
  bottom: "pool6_mbox_conf_perm"
  top: "pool6_mbox_conf_flat"
  flatten_param {
    axis: 1
  }
}
layer {
  name: "pool6_mbox_priorbox"
  type: "PriorBox"
  bottom: "pool6"
  bottom: "data"
  top: "pool6_mbox_priorbox"
  prior_box_param {
    min_size: 276
    max_size: 330
    aspect_ratio: 2
    aspect_ratio: 3
    flip: false
    clip: true
    variance: 0.1
    variance: 0.1
    variance: 0.2
    variance: 0.2
  }
}
layer {
  name: "mbox_loc"
  type: "Concat"
  bottom: "conv4_3_norm_mbox_loc_flat"
  bottom: "fc7_mbox_loc_flat"
  bottom: "conv6_2_mbox_loc_flat"
  bottom: "conv7_2_mbox_loc_flat"
  bottom: "conv8_2_mbox_loc_flat"
  bottom: "pool6_mbox_loc_flat"
  top: "mbox_loc"
  concat_param {
    axis: 1
  }
}
layer {
  name: "mbox_conf"
  type: "Concat"
  bottom: "conv4_3_norm_mbox_conf_flat"
  bottom: "fc7_mbox_conf_flat"
  bottom: "conv6_2_mbox_conf_flat"
  bottom: "conv7_2_mbox_conf_flat"
  bottom: "conv8_2_mbox_conf_flat"
  bottom: "pool6_mbox_conf_flat"
  top: "mbox_conf"
  concat_param {
    axis: 1
  }
}
layer {
  name: "mbox_priorbox"
  type: "Concat"
  bottom: "conv4_3_norm_mbox_priorbox"
  bottom: "fc7_mbox_priorbox"
  bottom: "conv6_2_mbox_priorbox"
  bottom: "conv7_2_mbox_priorbox"
  bottom: "conv8_2_mbox_priorbox"
  bottom: "pool6_mbox_priorbox"
  top: "mbox_priorbox"
  concat_param {
    axis: 2
  }
}
layer {
  name: "mbox_conf_reshape"
  type: "Reshape"
  bottom: "mbox_conf"
  top: "mbox_conf_reshape"
  reshape_param {
    shape {
      dim: 0
      dim: -1
      dim: 2
    }
  }
}
layer {
  name: "mbox_conf_softmax"
  type: "Softmax"
  bottom: "mbox_conf_reshape"
  top: "mbox_conf_softmax"
  softmax_param {
    axis: 2
  }
}
layer {
  name: "mbox_conf_flatten"
  type: "Flatten"
  bottom: "mbox_conf_softmax"
  top: "mbox_conf_flatten"
  flatten_param {
    axis: 1
  }
}
layer {
  name: "detection_out"
  type: "DetectionOutput"
  bottom: "mbox_loc"
  bottom: "mbox_conf_flatten"
  bottom: "mbox_priorbox"
  top: "detection_out"
  include {
    phase: TEST
  }
  detection_output_param {
    num_classes: 2
    share_location: true
    background_label_id: 0
    nms_param {
      nms_threshold: 0.45
      top_k: 400
    }
    save_output_param {
      output_directory: "/root/data/VOCdevkit/results/cola/SSD_300x300_start100/Main"
      output_name_prefix: "comp4_det_test_"
      output_format: "VOC"
      label_map_file: "data/cola/labelmap_voc.prototxt"
      name_size_file: "data/cola/test_name_size.txt"
      num_test_image: 1712
    }
    code_type: CENTER_SIZE
    keep_top_k: 200
    confidence_threshold: 0.01
  }
}
layer {
  name: "detection_eval"
  type: "DetectionEvaluate"
  bottom: "detection_out"
  bottom: "label"
  top: "detection_eval"
  include {
    phase: TEST
  }
  detection_evaluate_param {
    num_classes: 2
    background_label_id: 0
    overlap_threshold: 0.5
    evaluate_difficult_gt: false
    name_size_file: "data/cola/test_name_size.txt"
  }
}
I1115 21:32:01.905066   196 layer_factory.hpp:77] Creating layer data
I1115 21:32:01.905113   196 net.cpp:91] Creating Layer data
I1115 21:32:01.905122   196 net.cpp:399] data -> data
I1115 21:32:01.905134   196 net.cpp:399] data -> label
I1115 21:32:01.905812   203 db_lmdb.cpp:35] Opened lmdb examples/cola/cola_test_lmdb
I1115 21:32:01.906749   196 annotated_data_layer.cpp:52] output data size: 1,3,300,300
I1115 21:32:01.908622   196 net.cpp:141] Setting up data
I1115 21:32:01.908635   196 net.cpp:148] Top shape: 1 3 300 300 (270000)
I1115 21:32:01.908643   196 net.cpp:148] Top shape: 1 1 2 8 (16)
I1115 21:32:01.908645   196 net.cpp:156] Memory required for data: 1080064
I1115 21:32:01.908663   196 layer_factory.hpp:77] Creating layer data_data_0_split
I1115 21:32:01.908674   196 net.cpp:91] Creating Layer data_data_0_split
I1115 21:32:01.908679   196 net.cpp:425] data_data_0_split <- data
I1115 21:32:01.908686   196 net.cpp:399] data_data_0_split -> data_data_0_split_0
I1115 21:32:01.908696   196 net.cpp:399] data_data_0_split -> data_data_0_split_1
I1115 21:32:01.908704   196 net.cpp:399] data_data_0_split -> data_data_0_split_2
I1115 21:32:01.908712   196 net.cpp:399] data_data_0_split -> data_data_0_split_3
I1115 21:32:01.908720   196 net.cpp:399] data_data_0_split -> data_data_0_split_4
I1115 21:32:01.908726   196 net.cpp:399] data_data_0_split -> data_data_0_split_5
I1115 21:32:01.908733   196 net.cpp:399] data_data_0_split -> data_data_0_split_6
I1115 21:32:01.908843   196 net.cpp:141] Setting up data_data_0_split
I1115 21:32:01.908851   196 net.cpp:148] Top shape: 1 3 300 300 (270000)
I1115 21:32:01.908859   196 net.cpp:148] Top shape: 1 3 300 300 (270000)
I1115 21:32:01.908865   196 net.cpp:148] Top shape: 1 3 300 300 (270000)
I1115 21:32:01.908871   196 net.cpp:148] Top shape: 1 3 300 300 (270000)
I1115 21:32:01.908877   196 net.cpp:148] Top shape: 1 3 300 300 (270000)
I1115 21:32:01.908884   196 net.cpp:148] Top shape: 1 3 300 300 (270000)
I1115 21:32:01.908890   196 net.cpp:148] Top shape: 1 3 300 300 (270000)
I1115 21:32:01.908893   196 net.cpp:156] Memory required for data: 8640064
I1115 21:32:01.908898   196 layer_factory.hpp:77] Creating layer conv1_1
I1115 21:32:01.908911   196 net.cpp:91] Creating Layer conv1_1
I1115 21:32:01.908915   196 net.cpp:425] conv1_1 <- data_data_0_split_0
I1115 21:32:01.908922   196 net.cpp:399] conv1_1 -> conv1_1
I1115 21:32:01.910361   196 net.cpp:141] Setting up conv1_1
I1115 21:32:01.910372   196 net.cpp:148] Top shape: 1 64 300 300 (5760000)
I1115 21:32:01.910375   196 net.cpp:156] Memory required for data: 31680064
I1115 21:32:01.910387   196 layer_factory.hpp:77] Creating layer relu1_1
I1115 21:32:01.910406   196 net.cpp:91] Creating Layer relu1_1
I1115 21:32:01.910413   196 net.cpp:425] relu1_1 <- conv1_1
I1115 21:32:01.910419   196 net.cpp:386] relu1_1 -> conv1_1 (in-place)
I1115 21:32:01.910658   196 net.cpp:141] Setting up relu1_1
I1115 21:32:01.910668   196 net.cpp:148] Top shape: 1 64 300 300 (5760000)
I1115 21:32:01.910673   196 net.cpp:156] Memory required for data: 54720064
I1115 21:32:01.910679   196 layer_factory.hpp:77] Creating layer conv1_2
I1115 21:32:01.910691   196 net.cpp:91] Creating Layer conv1_2
I1115 21:32:01.910696   196 net.cpp:425] conv1_2 <- conv1_1
I1115 21:32:01.910703   196 net.cpp:399] conv1_2 -> conv1_2
I1115 21:32:01.911859   196 net.cpp:141] Setting up conv1_2
I1115 21:32:01.911870   196 net.cpp:148] Top shape: 1 64 300 300 (5760000)
I1115 21:32:01.911873   196 net.cpp:156] Memory required for data: 77760064
I1115 21:32:01.911885   196 layer_factory.hpp:77] Creating layer relu1_2
I1115 21:32:01.911891   196 net.cpp:91] Creating Layer relu1_2
I1115 21:32:01.911896   196 net.cpp:425] relu1_2 <- conv1_2
I1115 21:32:01.911906   196 net.cpp:386] relu1_2 -> conv1_2 (in-place)
I1115 21:32:01.912055   196 net.cpp:141] Setting up relu1_2
I1115 21:32:01.912065   196 net.cpp:148] Top shape: 1 64 300 300 (5760000)
I1115 21:32:01.912068   196 net.cpp:156] Memory required for data: 100800064
I1115 21:32:01.912073   196 layer_factory.hpp:77] Creating layer pool1
I1115 21:32:01.912083   196 net.cpp:91] Creating Layer pool1
I1115 21:32:01.912087   196 net.cpp:425] pool1 <- conv1_2
I1115 21:32:01.912094   196 net.cpp:399] pool1 -> pool1
I1115 21:32:01.912139   196 net.cpp:141] Setting up pool1
I1115 21:32:01.912147   196 net.cpp:148] Top shape: 1 64 150 150 (1440000)
I1115 21:32:01.912150   196 net.cpp:156] Memory required for data: 106560064
I1115 21:32:01.912155   196 layer_factory.hpp:77] Creating layer conv2_1
I1115 21:32:01.912166   196 net.cpp:91] Creating Layer conv2_1
I1115 21:32:01.912171   196 net.cpp:425] conv2_1 <- pool1
I1115 21:32:01.912180   196 net.cpp:399] conv2_1 -> conv2_1
I1115 21:32:01.913491   196 net.cpp:141] Setting up conv2_1
I1115 21:32:01.913501   196 net.cpp:148] Top shape: 1 128 150 150 (2880000)
I1115 21:32:01.913506   196 net.cpp:156] Memory required for data: 118080064
I1115 21:32:01.913516   196 layer_factory.hpp:77] Creating layer relu2_1
I1115 21:32:01.913524   196 net.cpp:91] Creating Layer relu2_1
I1115 21:32:01.913529   196 net.cpp:425] relu2_1 <- conv2_1
I1115 21:32:01.913535   196 net.cpp:386] relu2_1 -> conv2_1 (in-place)
I1115 21:32:01.913681   196 net.cpp:141] Setting up relu2_1
I1115 21:32:01.913688   196 net.cpp:148] Top shape: 1 128 150 150 (2880000)
I1115 21:32:01.913692   196 net.cpp:156] Memory required for data: 129600064
I1115 21:32:01.913698   196 layer_factory.hpp:77] Creating layer conv2_2
I1115 21:32:01.913709   196 net.cpp:91] Creating Layer conv2_2
I1115 21:32:01.913714   196 net.cpp:425] conv2_2 <- conv2_1
I1115 21:32:01.913722   196 net.cpp:399] conv2_2 -> conv2_2
I1115 21:32:01.915825   196 net.cpp:141] Setting up conv2_2
I1115 21:32:01.915839   196 net.cpp:148] Top shape: 1 128 150 150 (2880000)
I1115 21:32:01.915843   196 net.cpp:156] Memory required for data: 141120064
I1115 21:32:01.915853   196 layer_factory.hpp:77] Creating layer relu2_2
I1115 21:32:01.915860   196 net.cpp:91] Creating Layer relu2_2
I1115 21:32:01.915866   196 net.cpp:425] relu2_2 <- conv2_2
I1115 21:32:01.915874   196 net.cpp:386] relu2_2 -> conv2_2 (in-place)
I1115 21:32:01.916118   196 net.cpp:141] Setting up relu2_2
I1115 21:32:01.916128   196 net.cpp:148] Top shape: 1 128 150 150 (2880000)
I1115 21:32:01.916132   196 net.cpp:156] Memory required for data: 152640064
I1115 21:32:01.916138   196 layer_factory.hpp:77] Creating layer pool2
I1115 21:32:01.916148   196 net.cpp:91] Creating Layer pool2
I1115 21:32:01.916152   196 net.cpp:425] pool2 <- conv2_2
I1115 21:32:01.916159   196 net.cpp:399] pool2 -> pool2
I1115 21:32:01.916205   196 net.cpp:141] Setting up pool2
I1115 21:32:01.916213   196 net.cpp:148] Top shape: 1 128 75 75 (720000)
I1115 21:32:01.916231   196 net.cpp:156] Memory required for data: 155520064
I1115 21:32:01.916237   196 layer_factory.hpp:77] Creating layer conv3_1
I1115 21:32:01.916249   196 net.cpp:91] Creating Layer conv3_1
I1115 21:32:01.916254   196 net.cpp:425] conv3_1 <- pool2
I1115 21:32:01.916261   196 net.cpp:399] conv3_1 -> conv3_1
I1115 21:32:01.919004   196 net.cpp:141] Setting up conv3_1
I1115 21:32:01.919018   196 net.cpp:148] Top shape: 1 256 75 75 (1440000)
I1115 21:32:01.919023   196 net.cpp:156] Memory required for data: 161280064
I1115 21:32:01.919034   196 layer_factory.hpp:77] Creating layer relu3_1
I1115 21:32:01.919041   196 net.cpp:91] Creating Layer relu3_1
I1115 21:32:01.919047   196 net.cpp:425] relu3_1 <- conv3_1
I1115 21:32:01.919054   196 net.cpp:386] relu3_1 -> conv3_1 (in-place)
I1115 21:32:01.919204   196 net.cpp:141] Setting up relu3_1
I1115 21:32:01.919214   196 net.cpp:148] Top shape: 1 256 75 75 (1440000)
I1115 21:32:01.919217   196 net.cpp:156] Memory required for data: 167040064
I1115 21:32:01.919222   196 layer_factory.hpp:77] Creating layer conv3_2
I1115 21:32:01.919234   196 net.cpp:91] Creating Layer conv3_2
I1115 21:32:01.919239   196 net.cpp:425] conv3_2 <- conv3_1
I1115 21:32:01.919247   196 net.cpp:399] conv3_2 -> conv3_2
I1115 21:32:01.923779   196 net.cpp:141] Setting up conv3_2
I1115 21:32:01.923797   196 net.cpp:148] Top shape: 1 256 75 75 (1440000)
I1115 21:32:01.923801   196 net.cpp:156] Memory required for data: 172800064
I1115 21:32:01.923810   196 layer_factory.hpp:77] Creating layer relu3_2
I1115 21:32:01.923820   196 net.cpp:91] Creating Layer relu3_2
I1115 21:32:01.923825   196 net.cpp:425] relu3_2 <- conv3_2
I1115 21:32:01.923830   196 net.cpp:386] relu3_2 -> conv3_2 (in-place)
I1115 21:32:01.923985   196 net.cpp:141] Setting up relu3_2
I1115 21:32:01.924001   196 net.cpp:148] Top shape: 1 256 75 75 (1440000)
I1115 21:32:01.924005   196 net.cpp:156] Memory required for data: 178560064
I1115 21:32:01.924021   196 layer_factory.hpp:77] Creating layer conv3_3
I1115 21:32:01.924036   196 net.cpp:91] Creating Layer conv3_3
I1115 21:32:01.924041   196 net.cpp:425] conv3_3 <- conv3_2
I1115 21:32:01.924049   196 net.cpp:399] conv3_3 -> conv3_3
I1115 21:32:01.929399   196 net.cpp:141] Setting up conv3_3
I1115 21:32:01.929416   196 net.cpp:148] Top shape: 1 256 75 75 (1440000)
I1115 21:32:01.929420   196 net.cpp:156] Memory required for data: 184320064
I1115 21:32:01.929438   196 layer_factory.hpp:77] Creating layer relu3_3
I1115 21:32:01.929450   196 net.cpp:91] Creating Layer relu3_3
I1115 21:32:01.929455   196 net.cpp:425] relu3_3 <- conv3_3
I1115 21:32:01.929463   196 net.cpp:386] relu3_3 -> conv3_3 (in-place)
I1115 21:32:01.929761   196 net.cpp:141] Setting up relu3_3
I1115 21:32:01.929771   196 net.cpp:148] Top shape: 1 256 75 75 (1440000)
I1115 21:32:01.929775   196 net.cpp:156] Memory required for data: 190080064
I1115 21:32:01.929781   196 layer_factory.hpp:77] Creating layer pool3
I1115 21:32:01.929802   196 net.cpp:91] Creating Layer pool3
I1115 21:32:01.929806   196 net.cpp:425] pool3 <- conv3_3
I1115 21:32:01.929816   196 net.cpp:399] pool3 -> pool3
I1115 21:32:01.929863   196 net.cpp:141] Setting up pool3
I1115 21:32:01.929870   196 net.cpp:148] Top shape: 1 256 38 38 (369664)
I1115 21:32:01.929884   196 net.cpp:156] Memory required for data: 191558720
I1115 21:32:01.929889   196 layer_factory.hpp:77] Creating layer conv4_1
I1115 21:32:01.929911   196 net.cpp:91] Creating Layer conv4_1
I1115 21:32:01.929915   196 net.cpp:425] conv4_1 <- pool3
I1115 21:32:01.929924   196 net.cpp:399] conv4_1 -> conv4_1
I1115 21:32:01.937666   196 net.cpp:141] Setting up conv4_1
I1115 21:32:01.937682   196 net.cpp:148] Top shape: 1 512 38 38 (739328)
I1115 21:32:01.937686   196 net.cpp:156] Memory required for data: 194516032
I1115 21:32:01.937695   196 layer_factory.hpp:77] Creating layer relu4_1
I1115 21:32:01.937716   196 net.cpp:91] Creating Layer relu4_1
I1115 21:32:01.937721   196 net.cpp:425] relu4_1 <- conv4_1
I1115 21:32:01.937729   196 net.cpp:386] relu4_1 -> conv4_1 (in-place)
I1115 21:32:01.937903   196 net.cpp:141] Setting up relu4_1
I1115 21:32:01.937913   196 net.cpp:148] Top shape: 1 512 38 38 (739328)
I1115 21:32:01.937918   196 net.cpp:156] Memory required for data: 197473344
I1115 21:32:01.937924   196 layer_factory.hpp:77] Creating layer conv4_2
I1115 21:32:01.937947   196 net.cpp:91] Creating Layer conv4_2
I1115 21:32:01.937952   196 net.cpp:425] conv4_2 <- conv4_1
I1115 21:32:01.937959   196 net.cpp:399] conv4_2 -> conv4_2
I1115 21:32:01.952877   196 net.cpp:141] Setting up conv4_2
I1115 21:32:01.952898   196 net.cpp:148] Top shape: 1 512 38 38 (739328)
I1115 21:32:01.952903   196 net.cpp:156] Memory required for data: 200430656
I1115 21:32:01.952927   196 layer_factory.hpp:77] Creating layer relu4_2
I1115 21:32:01.952937   196 net.cpp:91] Creating Layer relu4_2
I1115 21:32:01.952952   196 net.cpp:425] relu4_2 <- conv4_2
I1115 21:32:01.952971   196 net.cpp:386] relu4_2 -> conv4_2 (in-place)
I1115 21:32:01.953172   196 net.cpp:141] Setting up relu4_2
I1115 21:32:01.953191   196 net.cpp:148] Top shape: 1 512 38 38 (739328)
I1115 21:32:01.953194   196 net.cpp:156] Memory required for data: 203387968
I1115 21:32:01.953209   196 layer_factory.hpp:77] Creating layer conv4_3
I1115 21:32:01.953232   196 net.cpp:91] Creating Layer conv4_3
I1115 21:32:01.953236   196 net.cpp:425] conv4_3 <- conv4_2
I1115 21:32:01.953244   196 net.cpp:399] conv4_3 -> conv4_3
I1115 21:32:01.968117   196 net.cpp:141] Setting up conv4_3
I1115 21:32:01.968138   196 net.cpp:148] Top shape: 1 512 38 38 (739328)
I1115 21:32:01.968143   196 net.cpp:156] Memory required for data: 206345280
I1115 21:32:01.968152   196 layer_factory.hpp:77] Creating layer relu4_3
I1115 21:32:01.968164   196 net.cpp:91] Creating Layer relu4_3
I1115 21:32:01.968179   196 net.cpp:425] relu4_3 <- conv4_3
I1115 21:32:01.968189   196 net.cpp:386] relu4_3 -> conv4_3 (in-place)
I1115 21:32:01.968466   196 net.cpp:141] Setting up relu4_3
I1115 21:32:01.968477   196 net.cpp:148] Top shape: 1 512 38 38 (739328)
I1115 21:32:01.968480   196 net.cpp:156] Memory required for data: 209302592
I1115 21:32:01.968487   196 layer_factory.hpp:77] Creating layer conv4_3_relu4_3_0_split
I1115 21:32:01.968494   196 net.cpp:91] Creating Layer conv4_3_relu4_3_0_split
I1115 21:32:01.968499   196 net.cpp:425] conv4_3_relu4_3_0_split <- conv4_3
I1115 21:32:01.968508   196 net.cpp:399] conv4_3_relu4_3_0_split -> conv4_3_relu4_3_0_split_0
I1115 21:32:01.968516   196 net.cpp:399] conv4_3_relu4_3_0_split -> conv4_3_relu4_3_0_split_1
I1115 21:32:01.968561   196 net.cpp:141] Setting up conv4_3_relu4_3_0_split
I1115 21:32:01.968569   196 net.cpp:148] Top shape: 1 512 38 38 (739328)
I1115 21:32:01.968575   196 net.cpp:148] Top shape: 1 512 38 38 (739328)
I1115 21:32:01.968580   196 net.cpp:156] Memory required for data: 215217216
I1115 21:32:01.968585   196 layer_factory.hpp:77] Creating layer pool4
I1115 21:32:01.968593   196 net.cpp:91] Creating Layer pool4
I1115 21:32:01.968598   196 net.cpp:425] pool4 <- conv4_3_relu4_3_0_split_0
I1115 21:32:01.968605   196 net.cpp:399] pool4 -> pool4
I1115 21:32:01.968646   196 net.cpp:141] Setting up pool4
I1115 21:32:01.968652   196 net.cpp:148] Top shape: 1 512 19 19 (184832)
I1115 21:32:01.968657   196 net.cpp:156] Memory required for data: 215956544
I1115 21:32:01.968662   196 layer_factory.hpp:77] Creating layer conv5_1
I1115 21:32:01.968673   196 net.cpp:91] Creating Layer conv5_1
I1115 21:32:01.968677   196 net.cpp:425] conv5_1 <- pool4
I1115 21:32:01.968685   196 net.cpp:399] conv5_1 -> conv5_1
I1115 21:32:01.983697   196 net.cpp:141] Setting up conv5_1
I1115 21:32:01.983722   196 net.cpp:148] Top shape: 1 512 19 19 (184832)
I1115 21:32:01.983726   196 net.cpp:156] Memory required for data: 216695872
I1115 21:32:01.983744   196 layer_factory.hpp:77] Creating layer relu5_1
I1115 21:32:01.983757   196 net.cpp:91] Creating Layer relu5_1
I1115 21:32:01.983773   196 net.cpp:425] relu5_1 <- conv5_1
I1115 21:32:01.983783   196 net.cpp:386] relu5_1 -> conv5_1 (in-place)
I1115 21:32:01.983973   196 net.cpp:141] Setting up relu5_1
I1115 21:32:01.983994   196 net.cpp:148] Top shape: 1 512 19 19 (184832)
I1115 21:32:01.983997   196 net.cpp:156] Memory required for data: 217435200
I1115 21:32:01.984004   196 layer_factory.hpp:77] Creating layer conv5_2
I1115 21:32:01.984019   196 net.cpp:91] Creating Layer conv5_2
I1115 21:32:01.984022   196 net.cpp:425] conv5_2 <- conv5_1
I1115 21:32:01.984030   196 net.cpp:399] conv5_2 -> conv5_2
I1115 21:32:01.999019   196 net.cpp:141] Setting up conv5_2
I1115 21:32:01.999042   196 net.cpp:148] Top shape: 1 512 19 19 (184832)
I1115 21:32:01.999047   196 net.cpp:156] Memory required for data: 218174528
I1115 21:32:01.999055   196 layer_factory.hpp:77] Creating layer relu5_2
I1115 21:32:01.999065   196 net.cpp:91] Creating Layer relu5_2
I1115 21:32:01.999081   196 net.cpp:425] relu5_2 <- conv5_2
I1115 21:32:01.999089   196 net.cpp:386] relu5_2 -> conv5_2 (in-place)
I1115 21:32:01.999292   196 net.cpp:141] Setting up relu5_2
I1115 21:32:01.999300   196 net.cpp:148] Top shape: 1 512 19 19 (184832)
I1115 21:32:01.999305   196 net.cpp:156] Memory required for data: 218913856
I1115 21:32:01.999310   196 layer_factory.hpp:77] Creating layer conv5_3
I1115 21:32:01.999322   196 net.cpp:91] Creating Layer conv5_3
I1115 21:32:01.999327   196 net.cpp:425] conv5_3 <- conv5_2
I1115 21:32:01.999336   196 net.cpp:399] conv5_3 -> conv5_3
I1115 21:32:02.014405   196 net.cpp:141] Setting up conv5_3
I1115 21:32:02.014428   196 net.cpp:148] Top shape: 1 512 19 19 (184832)
I1115 21:32:02.014432   196 net.cpp:156] Memory required for data: 219653184
I1115 21:32:02.014451   196 layer_factory.hpp:77] Creating layer relu5_3
I1115 21:32:02.014468   196 net.cpp:91] Creating Layer relu5_3
I1115 21:32:02.014474   196 net.cpp:425] relu5_3 <- conv5_3
I1115 21:32:02.014484   196 net.cpp:386] relu5_3 -> conv5_3 (in-place)
I1115 21:32:02.014744   196 net.cpp:141] Setting up relu5_3
I1115 21:32:02.014755   196 net.cpp:148] Top shape: 1 512 19 19 (184832)
I1115 21:32:02.014758   196 net.cpp:156] Memory required for data: 220392512
I1115 21:32:02.014775   196 layer_factory.hpp:77] Creating layer pool5
I1115 21:32:02.014783   196 net.cpp:91] Creating Layer pool5
I1115 21:32:02.014789   196 net.cpp:425] pool5 <- conv5_3
I1115 21:32:02.014796   196 net.cpp:399] pool5 -> pool5
I1115 21:32:02.014847   196 net.cpp:141] Setting up pool5
I1115 21:32:02.014863   196 net.cpp:148] Top shape: 1 512 19 19 (184832)
I1115 21:32:02.014868   196 net.cpp:156] Memory required for data: 221131840
I1115 21:32:02.014873   196 layer_factory.hpp:77] Creating layer fc6
I1115 21:32:02.014895   196 net.cpp:91] Creating Layer fc6
I1115 21:32:02.014900   196 net.cpp:425] fc6 <- pool5
I1115 21:32:02.014907   196 net.cpp:399] fc6 -> fc6
I1115 21:32:02.042882   196 net.cpp:141] Setting up fc6
I1115 21:32:02.042907   196 net.cpp:148] Top shape: 1 1024 19 19 (369664)
I1115 21:32:02.042912   196 net.cpp:156] Memory required for data: 222610496
I1115 21:32:02.042920   196 layer_factory.hpp:77] Creating layer relu6
I1115 21:32:02.042932   196 net.cpp:91] Creating Layer relu6
I1115 21:32:02.042948   196 net.cpp:425] relu6 <- fc6
I1115 21:32:02.042966   196 net.cpp:386] relu6 -> fc6 (in-place)
I1115 21:32:02.043195   196 net.cpp:141] Setting up relu6
I1115 21:32:02.043213   196 net.cpp:148] Top shape: 1 1024 19 19 (369664)
I1115 21:32:02.043217   196 net.cpp:156] Memory required for data: 224089152
I1115 21:32:02.043223   196 layer_factory.hpp:77] Creating layer fc7
I1115 21:32:02.043241   196 net.cpp:91] Creating Layer fc7
I1115 21:32:02.043244   196 net.cpp:425] fc7 <- fc6
I1115 21:32:02.043251   196 net.cpp:399] fc7 -> fc7
I1115 21:32:02.050447   196 net.cpp:141] Setting up fc7
I1115 21:32:02.050462   196 net.cpp:148] Top shape: 1 1024 19 19 (369664)
I1115 21:32:02.050467   196 net.cpp:156] Memory required for data: 225567808
I1115 21:32:02.050474   196 layer_factory.hpp:77] Creating layer relu7
I1115 21:32:02.050493   196 net.cpp:91] Creating Layer relu7
I1115 21:32:02.050499   196 net.cpp:425] relu7 <- fc7
I1115 21:32:02.050508   196 net.cpp:386] relu7 -> fc7 (in-place)
I1115 21:32:02.050788   196 net.cpp:141] Setting up relu7
I1115 21:32:02.050810   196 net.cpp:148] Top shape: 1 1024 19 19 (369664)
I1115 21:32:02.050814   196 net.cpp:156] Memory required for data: 227046464
I1115 21:32:02.050819   196 layer_factory.hpp:77] Creating layer fc7_relu7_0_split
I1115 21:32:02.050837   196 net.cpp:91] Creating Layer fc7_relu7_0_split
I1115 21:32:02.050853   196 net.cpp:425] fc7_relu7_0_split <- fc7
I1115 21:32:02.050863   196 net.cpp:399] fc7_relu7_0_split -> fc7_relu7_0_split_0
I1115 21:32:02.050884   196 net.cpp:399] fc7_relu7_0_split -> fc7_relu7_0_split_1
I1115 21:32:02.050911   196 net.cpp:399] fc7_relu7_0_split -> fc7_relu7_0_split_2
I1115 21:32:02.050920   196 net.cpp:399] fc7_relu7_0_split -> fc7_relu7_0_split_3
I1115 21:32:02.051012   196 net.cpp:141] Setting up fc7_relu7_0_split
I1115 21:32:02.051019   196 net.cpp:148] Top shape: 1 1024 19 19 (369664)
I1115 21:32:02.051026   196 net.cpp:148] Top shape: 1 1024 19 19 (369664)
I1115 21:32:02.051031   196 net.cpp:148] Top shape: 1 1024 19 19 (369664)
I1115 21:32:02.051038   196 net.cpp:148] Top shape: 1 1024 19 19 (369664)
I1115 21:32:02.051043   196 net.cpp:156] Memory required for data: 232961088
I1115 21:32:02.051048   196 layer_factory.hpp:77] Creating layer conv6_1
I1115 21:32:02.051059   196 net.cpp:91] Creating Layer conv6_1
I1115 21:32:02.051064   196 net.cpp:425] conv6_1 <- fc7_relu7_0_split_0
I1115 21:32:02.051072   196 net.cpp:399] conv6_1 -> conv6_1
I1115 21:32:02.053572   196 net.cpp:141] Setting up conv6_1
I1115 21:32:02.053584   196 net.cpp:148] Top shape: 1 256 19 19 (92416)
I1115 21:32:02.053588   196 net.cpp:156] Memory required for data: 233330752
I1115 21:32:02.053596   196 layer_factory.hpp:77] Creating layer conv6_1_relu
I1115 21:32:02.053603   196 net.cpp:91] Creating Layer conv6_1_relu
I1115 21:32:02.053609   196 net.cpp:425] conv6_1_relu <- conv6_1
I1115 21:32:02.053619   196 net.cpp:386] conv6_1_relu -> conv6_1 (in-place)
I1115 21:32:02.053865   196 net.cpp:141] Setting up conv6_1_relu
I1115 21:32:02.053875   196 net.cpp:148] Top shape: 1 256 19 19 (92416)
I1115 21:32:02.053879   196 net.cpp:156] Memory required for data: 233700416
I1115 21:32:02.053885   196 layer_factory.hpp:77] Creating layer conv6_2
I1115 21:32:02.053897   196 net.cpp:91] Creating Layer conv6_2
I1115 21:32:02.053902   196 net.cpp:425] conv6_2 <- conv6_1
I1115 21:32:02.053910   196 net.cpp:399] conv6_2 -> conv6_2
I1115 21:32:02.061800   196 net.cpp:141] Setting up conv6_2
I1115 21:32:02.061816   196 net.cpp:148] Top shape: 1 512 10 10 (51200)
I1115 21:32:02.061820   196 net.cpp:156] Memory required for data: 233905216
I1115 21:32:02.061836   196 layer_factory.hpp:77] Creating layer conv6_2_relu
I1115 21:32:02.061854   196 net.cpp:91] Creating Layer conv6_2_relu
I1115 21:32:02.061861   196 net.cpp:425] conv6_2_relu <- conv6_2
I1115 21:32:02.061878   196 net.cpp:386] conv6_2_relu -> conv6_2 (in-place)
I1115 21:32:02.062026   196 net.cpp:141] Setting up conv6_2_relu
I1115 21:32:02.062034   196 net.cpp:148] Top shape: 1 512 10 10 (51200)
I1115 21:32:02.062038   196 net.cpp:156] Memory required for data: 234110016
I1115 21:32:02.062044   196 layer_factory.hpp:77] Creating layer conv6_2_conv6_2_relu_0_split
I1115 21:32:02.062052   196 net.cpp:91] Creating Layer conv6_2_conv6_2_relu_0_split
I1115 21:32:02.062057   196 net.cpp:425] conv6_2_conv6_2_relu_0_split <- conv6_2
I1115 21:32:02.062064   196 net.cpp:399] conv6_2_conv6_2_relu_0_split -> conv6_2_conv6_2_relu_0_split_0
I1115 21:32:02.062072   196 net.cpp:399] conv6_2_conv6_2_relu_0_split -> conv6_2_conv6_2_relu_0_split_1
I1115 21:32:02.062082   196 net.cpp:399] conv6_2_conv6_2_relu_0_split -> conv6_2_conv6_2_relu_0_split_2
I1115 21:32:02.062089   196 net.cpp:399] conv6_2_conv6_2_relu_0_split -> conv6_2_conv6_2_relu_0_split_3
I1115 21:32:02.062163   196 net.cpp:141] Setting up conv6_2_conv6_2_relu_0_split
I1115 21:32:02.062170   196 net.cpp:148] Top shape: 1 512 10 10 (51200)
I1115 21:32:02.062177   196 net.cpp:148] Top shape: 1 512 10 10 (51200)
I1115 21:32:02.062183   196 net.cpp:148] Top shape: 1 512 10 10 (51200)
I1115 21:32:02.062202   196 net.cpp:148] Top shape: 1 512 10 10 (51200)
I1115 21:32:02.062207   196 net.cpp:156] Memory required for data: 234929216
I1115 21:32:02.062211   196 layer_factory.hpp:77] Creating layer conv7_1
I1115 21:32:02.062224   196 net.cpp:91] Creating Layer conv7_1
I1115 21:32:02.062229   196 net.cpp:425] conv7_1 <- conv6_2_conv6_2_relu_0_split_0
I1115 21:32:02.062237   196 net.cpp:399] conv7_1 -> conv7_1
I1115 21:32:02.063730   196 net.cpp:141] Setting up conv7_1
I1115 21:32:02.063740   196 net.cpp:148] Top shape: 1 128 10 10 (12800)
I1115 21:32:02.063745   196 net.cpp:156] Memory required for data: 234980416
I1115 21:32:02.063752   196 layer_factory.hpp:77] Creating layer conv7_1_relu
I1115 21:32:02.063760   196 net.cpp:91] Creating Layer conv7_1_relu
I1115 21:32:02.063766   196 net.cpp:425] conv7_1_relu <- conv7_1
I1115 21:32:02.063776   196 net.cpp:386] conv7_1_relu -> conv7_1 (in-place)
I1115 21:32:02.064029   196 net.cpp:141] Setting up conv7_1_relu
I1115 21:32:02.064039   196 net.cpp:148] Top shape: 1 128 10 10 (12800)
I1115 21:32:02.064043   196 net.cpp:156] Memory required for data: 235031616
I1115 21:32:02.064059   196 layer_factory.hpp:77] Creating layer conv7_2
I1115 21:32:02.064071   196 net.cpp:91] Creating Layer conv7_2
I1115 21:32:02.064076   196 net.cpp:425] conv7_2 <- conv7_1
I1115 21:32:02.064085   196 net.cpp:399] conv7_2 -> conv7_2
I1115 21:32:02.066669   196 net.cpp:141] Setting up conv7_2
I1115 21:32:02.066680   196 net.cpp:148] Top shape: 1 256 5 5 (6400)
I1115 21:32:02.066685   196 net.cpp:156] Memory required for data: 235057216
I1115 21:32:02.066692   196 layer_factory.hpp:77] Creating layer conv7_2_relu
I1115 21:32:02.066700   196 net.cpp:91] Creating Layer conv7_2_relu
I1115 21:32:02.066715   196 net.cpp:425] conv7_2_relu <- conv7_2
I1115 21:32:02.066733   196 net.cpp:386] conv7_2_relu -> conv7_2 (in-place)
I1115 21:32:02.067005   196 net.cpp:141] Setting up conv7_2_relu
I1115 21:32:02.067015   196 net.cpp:148] Top shape: 1 256 5 5 (6400)
I1115 21:32:02.067019   196 net.cpp:156] Memory required for data: 235082816
I1115 21:32:02.067034   196 layer_factory.hpp:77] Creating layer conv7_2_conv7_2_relu_0_split
I1115 21:32:02.067042   196 net.cpp:91] Creating Layer conv7_2_conv7_2_relu_0_split
I1115 21:32:02.067049   196 net.cpp:425] conv7_2_conv7_2_relu_0_split <- conv7_2
I1115 21:32:02.067057   196 net.cpp:399] conv7_2_conv7_2_relu_0_split -> conv7_2_conv7_2_relu_0_split_0
I1115 21:32:02.067066   196 net.cpp:399] conv7_2_conv7_2_relu_0_split -> conv7_2_conv7_2_relu_0_split_1
I1115 21:32:02.067073   196 net.cpp:399] conv7_2_conv7_2_relu_0_split -> conv7_2_conv7_2_relu_0_split_2
I1115 21:32:02.067081   196 net.cpp:399] conv7_2_conv7_2_relu_0_split -> conv7_2_conv7_2_relu_0_split_3
I1115 21:32:02.067155   196 net.cpp:141] Setting up conv7_2_conv7_2_relu_0_split
I1115 21:32:02.067162   196 net.cpp:148] Top shape: 1 256 5 5 (6400)
I1115 21:32:02.067168   196 net.cpp:148] Top shape: 1 256 5 5 (6400)
I1115 21:32:02.067173   196 net.cpp:148] Top shape: 1 256 5 5 (6400)
I1115 21:32:02.067179   196 net.cpp:148] Top shape: 1 256 5 5 (6400)
I1115 21:32:02.067184   196 net.cpp:156] Memory required for data: 235185216
I1115 21:32:02.067188   196 layer_factory.hpp:77] Creating layer conv8_1
I1115 21:32:02.067199   196 net.cpp:91] Creating Layer conv8_1
I1115 21:32:02.067204   196 net.cpp:425] conv8_1 <- conv7_2_conv7_2_relu_0_split_0
I1115 21:32:02.067212   196 net.cpp:399] conv8_1 -> conv8_1
I1115 21:32:02.068267   196 net.cpp:141] Setting up conv8_1
I1115 21:32:02.068279   196 net.cpp:148] Top shape: 1 128 5 5 (3200)
I1115 21:32:02.068282   196 net.cpp:156] Memory required for data: 235198016
I1115 21:32:02.068289   196 layer_factory.hpp:77] Creating layer conv8_1_relu
I1115 21:32:02.068298   196 net.cpp:91] Creating Layer conv8_1_relu
I1115 21:32:02.068305   196 net.cpp:425] conv8_1_relu <- conv8_1
I1115 21:32:02.068310   196 net.cpp:386] conv8_1_relu -> conv8_1 (in-place)
I1115 21:32:02.068457   196 net.cpp:141] Setting up conv8_1_relu
I1115 21:32:02.068466   196 net.cpp:148] Top shape: 1 128 5 5 (3200)
I1115 21:32:02.068482   196 net.cpp:156] Memory required for data: 235210816
I1115 21:32:02.068488   196 layer_factory.hpp:77] Creating layer conv8_2
I1115 21:32:02.068501   196 net.cpp:91] Creating Layer conv8_2
I1115 21:32:02.068506   196 net.cpp:425] conv8_2 <- conv8_1
I1115 21:32:02.068516   196 net.cpp:399] conv8_2 -> conv8_2
I1115 21:32:02.071177   196 net.cpp:141] Setting up conv8_2
I1115 21:32:02.071188   196 net.cpp:148] Top shape: 1 256 3 3 (2304)
I1115 21:32:02.071192   196 net.cpp:156] Memory required for data: 235220032
I1115 21:32:02.071199   196 layer_factory.hpp:77] Creating layer conv8_2_relu
I1115 21:32:02.071208   196 net.cpp:91] Creating Layer conv8_2_relu
I1115 21:32:02.071213   196 net.cpp:425] conv8_2_relu <- conv8_2
I1115 21:32:02.071223   196 net.cpp:386] conv8_2_relu -> conv8_2 (in-place)
I1115 21:32:02.071476   196 net.cpp:141] Setting up conv8_2_relu
I1115 21:32:02.071486   196 net.cpp:148] Top shape: 1 256 3 3 (2304)
I1115 21:32:02.071491   196 net.cpp:156] Memory required for data: 235229248
I1115 21:32:02.071507   196 layer_factory.hpp:77] Creating layer conv8_2_conv8_2_relu_0_split
I1115 21:32:02.071514   196 net.cpp:91] Creating Layer conv8_2_conv8_2_relu_0_split
I1115 21:32:02.071521   196 net.cpp:425] conv8_2_conv8_2_relu_0_split <- conv8_2
I1115 21:32:02.071527   196 net.cpp:399] conv8_2_conv8_2_relu_0_split -> conv8_2_conv8_2_relu_0_split_0
I1115 21:32:02.071535   196 net.cpp:399] conv8_2_conv8_2_relu_0_split -> conv8_2_conv8_2_relu_0_split_1
I1115 21:32:02.071543   196 net.cpp:399] conv8_2_conv8_2_relu_0_split -> conv8_2_conv8_2_relu_0_split_2
I1115 21:32:02.071552   196 net.cpp:399] conv8_2_conv8_2_relu_0_split -> conv8_2_conv8_2_relu_0_split_3
I1115 21:32:02.071632   196 net.cpp:141] Setting up conv8_2_conv8_2_relu_0_split
I1115 21:32:02.071640   196 net.cpp:148] Top shape: 1 256 3 3 (2304)
I1115 21:32:02.071646   196 net.cpp:148] Top shape: 1 256 3 3 (2304)
I1115 21:32:02.071652   196 net.cpp:148] Top shape: 1 256 3 3 (2304)
I1115 21:32:02.071658   196 net.cpp:148] Top shape: 1 256 3 3 (2304)
I1115 21:32:02.071662   196 net.cpp:156] Memory required for data: 235266112
I1115 21:32:02.071667   196 layer_factory.hpp:77] Creating layer pool6
I1115 21:32:02.071676   196 net.cpp:91] Creating Layer pool6
I1115 21:32:02.071679   196 net.cpp:425] pool6 <- conv8_2_conv8_2_relu_0_split_0
I1115 21:32:02.071688   196 net.cpp:399] pool6 -> pool6
I1115 21:32:02.071851   196 net.cpp:141] Setting up pool6
I1115 21:32:02.071859   196 net.cpp:148] Top shape: 1 256 1 1 (256)
I1115 21:32:02.071863   196 net.cpp:156] Memory required for data: 235267136
I1115 21:32:02.071868   196 layer_factory.hpp:77] Creating layer pool6_pool6_0_split
I1115 21:32:02.071877   196 net.cpp:91] Creating Layer pool6_pool6_0_split
I1115 21:32:02.071882   196 net.cpp:425] pool6_pool6_0_split <- pool6
I1115 21:32:02.071887   196 net.cpp:399] pool6_pool6_0_split -> pool6_pool6_0_split_0
I1115 21:32:02.071895   196 net.cpp:399] pool6_pool6_0_split -> pool6_pool6_0_split_1
I1115 21:32:02.071902   196 net.cpp:399] pool6_pool6_0_split -> pool6_pool6_0_split_2
I1115 21:32:02.071959   196 net.cpp:141] Setting up pool6_pool6_0_split
I1115 21:32:02.071967   196 net.cpp:148] Top shape: 1 256 1 1 (256)
I1115 21:32:02.071974   196 net.cpp:148] Top shape: 1 256 1 1 (256)
I1115 21:32:02.071980   196 net.cpp:148] Top shape: 1 256 1 1 (256)
I1115 21:32:02.071985   196 net.cpp:156] Memory required for data: 235270208
I1115 21:32:02.071988   196 layer_factory.hpp:77] Creating layer conv4_3_norm
I1115 21:32:02.071997   196 net.cpp:91] Creating Layer conv4_3_norm
I1115 21:32:02.072003   196 net.cpp:425] conv4_3_norm <- conv4_3_relu4_3_0_split_1
I1115 21:32:02.072011   196 net.cpp:399] conv4_3_norm -> conv4_3_norm
I1115 21:32:02.072178   196 net.cpp:141] Setting up conv4_3_norm
I1115 21:32:02.072185   196 net.cpp:148] Top shape: 1 512 38 38 (739328)
I1115 21:32:02.072190   196 net.cpp:156] Memory required for data: 238227520
I1115 21:32:02.072196   196 layer_factory.hpp:77] Creating layer conv4_3_norm_conv4_3_norm_0_split
I1115 21:32:02.072213   196 net.cpp:91] Creating Layer conv4_3_norm_conv4_3_norm_0_split
I1115 21:32:02.072219   196 net.cpp:425] conv4_3_norm_conv4_3_norm_0_split <- conv4_3_norm
I1115 21:32:02.072227   196 net.cpp:399] conv4_3_norm_conv4_3_norm_0_split -> conv4_3_norm_conv4_3_norm_0_split_0
I1115 21:32:02.072234   196 net.cpp:399] conv4_3_norm_conv4_3_norm_0_split -> conv4_3_norm_conv4_3_norm_0_split_1
I1115 21:32:02.072242   196 net.cpp:399] conv4_3_norm_conv4_3_norm_0_split -> conv4_3_norm_conv4_3_norm_0_split_2
I1115 21:32:02.072294   196 net.cpp:141] Setting up conv4_3_norm_conv4_3_norm_0_split
I1115 21:32:02.072301   196 net.cpp:148] Top shape: 1 512 38 38 (739328)
I1115 21:32:02.072309   196 net.cpp:148] Top shape: 1 512 38 38 (739328)
I1115 21:32:02.072314   196 net.cpp:148] Top shape: 1 512 38 38 (739328)
I1115 21:32:02.072319   196 net.cpp:156] Memory required for data: 247099456
I1115 21:32:02.072324   196 layer_factory.hpp:77] Creating layer conv4_3_norm_mbox_loc
I1115 21:32:02.072334   196 net.cpp:91] Creating Layer conv4_3_norm_mbox_loc
I1115 21:32:02.072338   196 net.cpp:425] conv4_3_norm_mbox_loc <- conv4_3_norm_conv4_3_norm_0_split_0
I1115 21:32:02.072345   196 net.cpp:399] conv4_3_norm_mbox_loc -> conv4_3_norm_mbox_loc
I1115 21:32:02.073514   196 net.cpp:141] Setting up conv4_3_norm_mbox_loc
I1115 21:32:02.073525   196 net.cpp:148] Top shape: 1 8 38 38 (11552)
I1115 21:32:02.073529   196 net.cpp:156] Memory required for data: 247145664
I1115 21:32:02.073537   196 layer_factory.hpp:77] Creating layer conv4_3_norm_mbox_loc_perm
I1115 21:32:02.073547   196 net.cpp:91] Creating Layer conv4_3_norm_mbox_loc_perm
I1115 21:32:02.073552   196 net.cpp:425] conv4_3_norm_mbox_loc_perm <- conv4_3_norm_mbox_loc
I1115 21:32:02.073560   196 net.cpp:399] conv4_3_norm_mbox_loc_perm -> conv4_3_norm_mbox_loc_perm
I1115 21:32:02.073675   196 net.cpp:141] Setting up conv4_3_norm_mbox_loc_perm
I1115 21:32:02.073683   196 net.cpp:148] Top shape: 1 38 38 8 (11552)
I1115 21:32:02.073686   196 net.cpp:156] Memory required for data: 247191872
I1115 21:32:02.073691   196 layer_factory.hpp:77] Creating layer conv4_3_norm_mbox_loc_flat
I1115 21:32:02.073701   196 net.cpp:91] Creating Layer conv4_3_norm_mbox_loc_flat
I1115 21:32:02.073706   196 net.cpp:425] conv4_3_norm_mbox_loc_flat <- conv4_3_norm_mbox_loc_perm
I1115 21:32:02.073712   196 net.cpp:399] conv4_3_norm_mbox_loc_flat -> conv4_3_norm_mbox_loc_flat
I1115 21:32:02.073742   196 net.cpp:141] Setting up conv4_3_norm_mbox_loc_flat
I1115 21:32:02.073750   196 net.cpp:148] Top shape: 1 11552 (11552)
I1115 21:32:02.073753   196 net.cpp:156] Memory required for data: 247238080
I1115 21:32:02.073757   196 layer_factory.hpp:77] Creating layer conv4_3_norm_mbox_conf
I1115 21:32:02.073768   196 net.cpp:91] Creating Layer conv4_3_norm_mbox_conf
I1115 21:32:02.073773   196 net.cpp:425] conv4_3_norm_mbox_conf <- conv4_3_norm_conv4_3_norm_0_split_1
I1115 21:32:02.073783   196 net.cpp:399] conv4_3_norm_mbox_conf -> conv4_3_norm_mbox_conf
I1115 21:32:02.074865   196 net.cpp:141] Setting up conv4_3_norm_mbox_conf
I1115 21:32:02.074877   196 net.cpp:148] Top shape: 1 4 38 38 (5776)
I1115 21:32:02.074882   196 net.cpp:156] Memory required for data: 247261184
I1115 21:32:02.074890   196 layer_factory.hpp:77] Creating layer conv4_3_norm_mbox_conf_perm
I1115 21:32:02.074900   196 net.cpp:91] Creating Layer conv4_3_norm_mbox_conf_perm
I1115 21:32:02.074905   196 net.cpp:425] conv4_3_norm_mbox_conf_perm <- conv4_3_norm_mbox_conf
I1115 21:32:02.074913   196 net.cpp:399] conv4_3_norm_mbox_conf_perm -> conv4_3_norm_mbox_conf_perm
I1115 21:32:02.075027   196 net.cpp:141] Setting up conv4_3_norm_mbox_conf_perm
I1115 21:32:02.075036   196 net.cpp:148] Top shape: 1 38 38 4 (5776)
I1115 21:32:02.075040   196 net.cpp:156] Memory required for data: 247284288
I1115 21:32:02.075047   196 layer_factory.hpp:77] Creating layer conv4_3_norm_mbox_conf_flat
I1115 21:32:02.075053   196 net.cpp:91] Creating Layer conv4_3_norm_mbox_conf_flat
I1115 21:32:02.075059   196 net.cpp:425] conv4_3_norm_mbox_conf_flat <- conv4_3_norm_mbox_conf_perm
I1115 21:32:02.075078   196 net.cpp:399] conv4_3_norm_mbox_conf_flat -> conv4_3_norm_mbox_conf_flat
I1115 21:32:02.075109   196 net.cpp:141] Setting up conv4_3_norm_mbox_conf_flat
I1115 21:32:02.075117   196 net.cpp:148] Top shape: 1 5776 (5776)
I1115 21:32:02.075122   196 net.cpp:156] Memory required for data: 247307392
I1115 21:32:02.075127   196 layer_factory.hpp:77] Creating layer conv4_3_norm_mbox_priorbox
I1115 21:32:02.075141   196 net.cpp:91] Creating Layer conv4_3_norm_mbox_priorbox
I1115 21:32:02.075147   196 net.cpp:425] conv4_3_norm_mbox_priorbox <- conv4_3_norm_conv4_3_norm_0_split_2
I1115 21:32:02.075152   196 net.cpp:425] conv4_3_norm_mbox_priorbox <- data_data_0_split_1
I1115 21:32:02.075160   196 net.cpp:399] conv4_3_norm_mbox_priorbox -> conv4_3_norm_mbox_priorbox
I1115 21:32:02.075191   196 net.cpp:141] Setting up conv4_3_norm_mbox_priorbox
I1115 21:32:02.075199   196 net.cpp:148] Top shape: 1 2 11552 (23104)
I1115 21:32:02.075204   196 net.cpp:156] Memory required for data: 247399808
I1115 21:32:02.075209   196 layer_factory.hpp:77] Creating layer fc7_mbox_loc
I1115 21:32:02.075222   196 net.cpp:91] Creating Layer fc7_mbox_loc
I1115 21:32:02.075227   196 net.cpp:425] fc7_mbox_loc <- fc7_relu7_0_split_1
I1115 21:32:02.075233   196 net.cpp:399] fc7_mbox_loc -> fc7_mbox_loc
I1115 21:32:02.077327   196 net.cpp:141] Setting up fc7_mbox_loc
I1115 21:32:02.077339   196 net.cpp:148] Top shape: 1 16 19 19 (5776)
I1115 21:32:02.077344   196 net.cpp:156] Memory required for data: 247422912
I1115 21:32:02.077353   196 layer_factory.hpp:77] Creating layer fc7_mbox_loc_perm
I1115 21:32:02.077363   196 net.cpp:91] Creating Layer fc7_mbox_loc_perm
I1115 21:32:02.077368   196 net.cpp:425] fc7_mbox_loc_perm <- fc7_mbox_loc
I1115 21:32:02.077375   196 net.cpp:399] fc7_mbox_loc_perm -> fc7_mbox_loc_perm
I1115 21:32:02.077488   196 net.cpp:141] Setting up fc7_mbox_loc_perm
I1115 21:32:02.077497   196 net.cpp:148] Top shape: 1 19 19 16 (5776)
I1115 21:32:02.077502   196 net.cpp:156] Memory required for data: 247446016
I1115 21:32:02.077507   196 layer_factory.hpp:77] Creating layer fc7_mbox_loc_flat
I1115 21:32:02.077514   196 net.cpp:91] Creating Layer fc7_mbox_loc_flat
I1115 21:32:02.077518   196 net.cpp:425] fc7_mbox_loc_flat <- fc7_mbox_loc_perm
I1115 21:32:02.077525   196 net.cpp:399] fc7_mbox_loc_flat -> fc7_mbox_loc_flat
I1115 21:32:02.077555   196 net.cpp:141] Setting up fc7_mbox_loc_flat
I1115 21:32:02.077563   196 net.cpp:148] Top shape: 1 5776 (5776)
I1115 21:32:02.077566   196 net.cpp:156] Memory required for data: 247469120
I1115 21:32:02.077570   196 layer_factory.hpp:77] Creating layer fc7_mbox_conf
I1115 21:32:02.077582   196 net.cpp:91] Creating Layer fc7_mbox_conf
I1115 21:32:02.077587   196 net.cpp:425] fc7_mbox_conf <- fc7_relu7_0_split_2
I1115 21:32:02.077597   196 net.cpp:399] fc7_mbox_conf -> fc7_mbox_conf
I1115 21:32:02.078876   196 net.cpp:141] Setting up fc7_mbox_conf
I1115 21:32:02.078886   196 net.cpp:148] Top shape: 1 8 19 19 (2888)
I1115 21:32:02.078891   196 net.cpp:156] Memory required for data: 247480672
I1115 21:32:02.078897   196 layer_factory.hpp:77] Creating layer fc7_mbox_conf_perm
I1115 21:32:02.078907   196 net.cpp:91] Creating Layer fc7_mbox_conf_perm
I1115 21:32:02.078912   196 net.cpp:425] fc7_mbox_conf_perm <- fc7_mbox_conf
I1115 21:32:02.078919   196 net.cpp:399] fc7_mbox_conf_perm -> fc7_mbox_conf_perm
I1115 21:32:02.079033   196 net.cpp:141] Setting up fc7_mbox_conf_perm
I1115 21:32:02.079041   196 net.cpp:148] Top shape: 1 19 19 8 (2888)
I1115 21:32:02.079044   196 net.cpp:156] Memory required for data: 247492224
I1115 21:32:02.079049   196 layer_factory.hpp:77] Creating layer fc7_mbox_conf_flat
I1115 21:32:02.079057   196 net.cpp:91] Creating Layer fc7_mbox_conf_flat
I1115 21:32:02.079062   196 net.cpp:425] fc7_mbox_conf_flat <- fc7_mbox_conf_perm
I1115 21:32:02.079071   196 net.cpp:399] fc7_mbox_conf_flat -> fc7_mbox_conf_flat
I1115 21:32:02.079099   196 net.cpp:141] Setting up fc7_mbox_conf_flat
I1115 21:32:02.079107   196 net.cpp:148] Top shape: 1 2888 (2888)
I1115 21:32:02.079120   196 net.cpp:156] Memory required for data: 247503776
I1115 21:32:02.079126   196 layer_factory.hpp:77] Creating layer fc7_mbox_priorbox
I1115 21:32:02.079138   196 net.cpp:91] Creating Layer fc7_mbox_priorbox
I1115 21:32:02.079143   196 net.cpp:425] fc7_mbox_priorbox <- fc7_relu7_0_split_3
I1115 21:32:02.079149   196 net.cpp:425] fc7_mbox_priorbox <- data_data_0_split_2
I1115 21:32:02.079157   196 net.cpp:399] fc7_mbox_priorbox -> fc7_mbox_priorbox
I1115 21:32:02.079188   196 net.cpp:141] Setting up fc7_mbox_priorbox
I1115 21:32:02.079195   196 net.cpp:148] Top shape: 1 2 5776 (11552)
I1115 21:32:02.079200   196 net.cpp:156] Memory required for data: 247549984
I1115 21:32:02.079205   196 layer_factory.hpp:77] Creating layer conv6_2_mbox_loc
I1115 21:32:02.079217   196 net.cpp:91] Creating Layer conv6_2_mbox_loc
I1115 21:32:02.079221   196 net.cpp:425] conv6_2_mbox_loc <- conv6_2_conv6_2_relu_0_split_1
I1115 21:32:02.079231   196 net.cpp:399] conv6_2_mbox_loc -> conv6_2_mbox_loc
I1115 21:32:02.080612   196 net.cpp:141] Setting up conv6_2_mbox_loc
I1115 21:32:02.080624   196 net.cpp:148] Top shape: 1 16 10 10 (1600)
I1115 21:32:02.080628   196 net.cpp:156] Memory required for data: 247556384
I1115 21:32:02.080636   196 layer_factory.hpp:77] Creating layer conv6_2_mbox_loc_perm
I1115 21:32:02.080644   196 net.cpp:91] Creating Layer conv6_2_mbox_loc_perm
I1115 21:32:02.080651   196 net.cpp:425] conv6_2_mbox_loc_perm <- conv6_2_mbox_loc
I1115 21:32:02.080659   196 net.cpp:399] conv6_2_mbox_loc_perm -> conv6_2_mbox_loc_perm
I1115 21:32:02.080777   196 net.cpp:141] Setting up conv6_2_mbox_loc_perm
I1115 21:32:02.080785   196 net.cpp:148] Top shape: 1 10 10 16 (1600)
I1115 21:32:02.080791   196 net.cpp:156] Memory required for data: 247562784
I1115 21:32:02.080796   196 layer_factory.hpp:77] Creating layer conv6_2_mbox_loc_flat
I1115 21:32:02.080804   196 net.cpp:91] Creating Layer conv6_2_mbox_loc_flat
I1115 21:32:02.080809   196 net.cpp:425] conv6_2_mbox_loc_flat <- conv6_2_mbox_loc_perm
I1115 21:32:02.080816   196 net.cpp:399] conv6_2_mbox_loc_flat -> conv6_2_mbox_loc_flat
I1115 21:32:02.080847   196 net.cpp:141] Setting up conv6_2_mbox_loc_flat
I1115 21:32:02.080854   196 net.cpp:148] Top shape: 1 1600 (1600)
I1115 21:32:02.080858   196 net.cpp:156] Memory required for data: 247569184
I1115 21:32:02.080863   196 layer_factory.hpp:77] Creating layer conv6_2_mbox_conf
I1115 21:32:02.080875   196 net.cpp:91] Creating Layer conv6_2_mbox_conf
I1115 21:32:02.080879   196 net.cpp:425] conv6_2_mbox_conf <- conv6_2_conv6_2_relu_0_split_2
I1115 21:32:02.080889   196 net.cpp:399] conv6_2_mbox_conf -> conv6_2_mbox_conf
I1115 21:32:02.082072   196 net.cpp:141] Setting up conv6_2_mbox_conf
I1115 21:32:02.082083   196 net.cpp:148] Top shape: 1 8 10 10 (800)
I1115 21:32:02.082087   196 net.cpp:156] Memory required for data: 247572384
I1115 21:32:02.082095   196 layer_factory.hpp:77] Creating layer conv6_2_mbox_conf_perm
I1115 21:32:02.082103   196 net.cpp:91] Creating Layer conv6_2_mbox_conf_perm
I1115 21:32:02.082108   196 net.cpp:425] conv6_2_mbox_conf_perm <- conv6_2_mbox_conf
I1115 21:32:02.082116   196 net.cpp:399] conv6_2_mbox_conf_perm -> conv6_2_mbox_conf_perm
I1115 21:32:02.082233   196 net.cpp:141] Setting up conv6_2_mbox_conf_perm
I1115 21:32:02.082242   196 net.cpp:148] Top shape: 1 10 10 8 (800)
I1115 21:32:02.082247   196 net.cpp:156] Memory required for data: 247575584
I1115 21:32:02.082252   196 layer_factory.hpp:77] Creating layer conv6_2_mbox_conf_flat
I1115 21:32:02.082260   196 net.cpp:91] Creating Layer conv6_2_mbox_conf_flat
I1115 21:32:02.082265   196 net.cpp:425] conv6_2_mbox_conf_flat <- conv6_2_mbox_conf_perm
I1115 21:32:02.082273   196 net.cpp:399] conv6_2_mbox_conf_flat -> conv6_2_mbox_conf_flat
I1115 21:32:02.082304   196 net.cpp:141] Setting up conv6_2_mbox_conf_flat
I1115 21:32:02.082310   196 net.cpp:148] Top shape: 1 800 (800)
I1115 21:32:02.082314   196 net.cpp:156] Memory required for data: 247578784
I1115 21:32:02.082319   196 layer_factory.hpp:77] Creating layer conv6_2_mbox_priorbox
I1115 21:32:02.082335   196 net.cpp:91] Creating Layer conv6_2_mbox_priorbox
I1115 21:32:02.082341   196 net.cpp:425] conv6_2_mbox_priorbox <- conv6_2_conv6_2_relu_0_split_3
I1115 21:32:02.082350   196 net.cpp:425] conv6_2_mbox_priorbox <- data_data_0_split_3
I1115 21:32:02.082357   196 net.cpp:399] conv6_2_mbox_priorbox -> conv6_2_mbox_priorbox
I1115 21:32:02.082391   196 net.cpp:141] Setting up conv6_2_mbox_priorbox
I1115 21:32:02.082398   196 net.cpp:148] Top shape: 1 2 1600 (3200)
I1115 21:32:02.082403   196 net.cpp:156] Memory required for data: 247591584
I1115 21:32:02.082409   196 layer_factory.hpp:77] Creating layer conv7_2_mbox_loc
I1115 21:32:02.082420   196 net.cpp:91] Creating Layer conv7_2_mbox_loc
I1115 21:32:02.082425   196 net.cpp:425] conv7_2_mbox_loc <- conv7_2_conv7_2_relu_0_split_1
I1115 21:32:02.082437   196 net.cpp:399] conv7_2_mbox_loc -> conv7_2_mbox_loc
I1115 21:32:02.083633   196 net.cpp:141] Setting up conv7_2_mbox_loc
I1115 21:32:02.083644   196 net.cpp:148] Top shape: 1 16 5 5 (400)
I1115 21:32:02.083648   196 net.cpp:156] Memory required for data: 247593184
I1115 21:32:02.083658   196 layer_factory.hpp:77] Creating layer conv7_2_mbox_loc_perm
I1115 21:32:02.083665   196 net.cpp:91] Creating Layer conv7_2_mbox_loc_perm
I1115 21:32:02.083672   196 net.cpp:425] conv7_2_mbox_loc_perm <- conv7_2_mbox_loc
I1115 21:32:02.083679   196 net.cpp:399] conv7_2_mbox_loc_perm -> conv7_2_mbox_loc_perm
I1115 21:32:02.083796   196 net.cpp:141] Setting up conv7_2_mbox_loc_perm
I1115 21:32:02.083804   196 net.cpp:148] Top shape: 1 5 5 16 (400)
I1115 21:32:02.083811   196 net.cpp:156] Memory required for data: 247594784
I1115 21:32:02.083814   196 layer_factory.hpp:77] Creating layer conv7_2_mbox_loc_flat
I1115 21:32:02.083822   196 net.cpp:91] Creating Layer conv7_2_mbox_loc_flat
I1115 21:32:02.083827   196 net.cpp:425] conv7_2_mbox_loc_flat <- conv7_2_mbox_loc_perm
I1115 21:32:02.083837   196 net.cpp:399] conv7_2_mbox_loc_flat -> conv7_2_mbox_loc_flat
I1115 21:32:02.083866   196 net.cpp:141] Setting up conv7_2_mbox_loc_flat
I1115 21:32:02.083873   196 net.cpp:148] Top shape: 1 400 (400)
I1115 21:32:02.083878   196 net.cpp:156] Memory required for data: 247596384
I1115 21:32:02.083883   196 layer_factory.hpp:77] Creating layer conv7_2_mbox_conf
I1115 21:32:02.083894   196 net.cpp:91] Creating Layer conv7_2_mbox_conf
I1115 21:32:02.083899   196 net.cpp:425] conv7_2_mbox_conf <- conv7_2_conv7_2_relu_0_split_2
I1115 21:32:02.083906   196 net.cpp:399] conv7_2_mbox_conf -> conv7_2_mbox_conf
I1115 21:32:02.085005   196 net.cpp:141] Setting up conv7_2_mbox_conf
I1115 21:32:02.085016   196 net.cpp:148] Top shape: 1 8 5 5 (200)
I1115 21:32:02.085021   196 net.cpp:156] Memory required for data: 247597184
I1115 21:32:02.085029   196 layer_factory.hpp:77] Creating layer conv7_2_mbox_conf_perm
I1115 21:32:02.085037   196 net.cpp:91] Creating Layer conv7_2_mbox_conf_perm
I1115 21:32:02.085042   196 net.cpp:425] conv7_2_mbox_conf_perm <- conv7_2_mbox_conf
I1115 21:32:02.085050   196 net.cpp:399] conv7_2_mbox_conf_perm -> conv7_2_mbox_conf_perm
I1115 21:32:02.085166   196 net.cpp:141] Setting up conv7_2_mbox_conf_perm
I1115 21:32:02.085175   196 net.cpp:148] Top shape: 1 5 5 8 (200)
I1115 21:32:02.085178   196 net.cpp:156] Memory required for data: 247597984
I1115 21:32:02.085183   196 layer_factory.hpp:77] Creating layer conv7_2_mbox_conf_flat
I1115 21:32:02.085189   196 net.cpp:91] Creating Layer conv7_2_mbox_conf_flat
I1115 21:32:02.085194   196 net.cpp:425] conv7_2_mbox_conf_flat <- conv7_2_mbox_conf_perm
I1115 21:32:02.085203   196 net.cpp:399] conv7_2_mbox_conf_flat -> conv7_2_mbox_conf_flat
I1115 21:32:02.085233   196 net.cpp:141] Setting up conv7_2_mbox_conf_flat
I1115 21:32:02.085240   196 net.cpp:148] Top shape: 1 200 (200)
I1115 21:32:02.085244   196 net.cpp:156] Memory required for data: 247598784
I1115 21:32:02.085249   196 layer_factory.hpp:77] Creating layer conv7_2_mbox_priorbox
I1115 21:32:02.085256   196 net.cpp:91] Creating Layer conv7_2_mbox_priorbox
I1115 21:32:02.085263   196 net.cpp:425] conv7_2_mbox_priorbox <- conv7_2_conv7_2_relu_0_split_3
I1115 21:32:02.085278   196 net.cpp:425] conv7_2_mbox_priorbox <- data_data_0_split_4
I1115 21:32:02.085289   196 net.cpp:399] conv7_2_mbox_priorbox -> conv7_2_mbox_priorbox
I1115 21:32:02.085320   196 net.cpp:141] Setting up conv7_2_mbox_priorbox
I1115 21:32:02.085330   196 net.cpp:148] Top shape: 1 2 400 (800)
I1115 21:32:02.085335   196 net.cpp:156] Memory required for data: 247601984
I1115 21:32:02.085338   196 layer_factory.hpp:77] Creating layer conv8_2_mbox_loc
I1115 21:32:02.085350   196 net.cpp:91] Creating Layer conv8_2_mbox_loc
I1115 21:32:02.085355   196 net.cpp:425] conv8_2_mbox_loc <- conv8_2_conv8_2_relu_0_split_1
I1115 21:32:02.085363   196 net.cpp:399] conv8_2_mbox_loc -> conv8_2_mbox_loc
I1115 21:32:02.086733   196 net.cpp:141] Setting up conv8_2_mbox_loc
I1115 21:32:02.086743   196 net.cpp:148] Top shape: 1 16 3 3 (144)
I1115 21:32:02.086748   196 net.cpp:156] Memory required for data: 247602560
I1115 21:32:02.086757   196 layer_factory.hpp:77] Creating layer conv8_2_mbox_loc_perm
I1115 21:32:02.086766   196 net.cpp:91] Creating Layer conv8_2_mbox_loc_perm
I1115 21:32:02.086771   196 net.cpp:425] conv8_2_mbox_loc_perm <- conv8_2_mbox_loc
I1115 21:32:02.086779   196 net.cpp:399] conv8_2_mbox_loc_perm -> conv8_2_mbox_loc_perm
I1115 21:32:02.086899   196 net.cpp:141] Setting up conv8_2_mbox_loc_perm
I1115 21:32:02.086907   196 net.cpp:148] Top shape: 1 3 3 16 (144)
I1115 21:32:02.086912   196 net.cpp:156] Memory required for data: 247603136
I1115 21:32:02.086918   196 layer_factory.hpp:77] Creating layer conv8_2_mbox_loc_flat
I1115 21:32:02.086925   196 net.cpp:91] Creating Layer conv8_2_mbox_loc_flat
I1115 21:32:02.086931   196 net.cpp:425] conv8_2_mbox_loc_flat <- conv8_2_mbox_loc_perm
I1115 21:32:02.086940   196 net.cpp:399] conv8_2_mbox_loc_flat -> conv8_2_mbox_loc_flat
I1115 21:32:02.086971   196 net.cpp:141] Setting up conv8_2_mbox_loc_flat
I1115 21:32:02.086977   196 net.cpp:148] Top shape: 1 144 (144)
I1115 21:32:02.086983   196 net.cpp:156] Memory required for data: 247603712
I1115 21:32:02.086988   196 layer_factory.hpp:77] Creating layer conv8_2_mbox_conf
I1115 21:32:02.086999   196 net.cpp:91] Creating Layer conv8_2_mbox_conf
I1115 21:32:02.087004   196 net.cpp:425] conv8_2_mbox_conf <- conv8_2_conv8_2_relu_0_split_2
I1115 21:32:02.087015   196 net.cpp:399] conv8_2_mbox_conf -> conv8_2_mbox_conf
I1115 21:32:02.088114   196 net.cpp:141] Setting up conv8_2_mbox_conf
I1115 21:32:02.088125   196 net.cpp:148] Top shape: 1 8 3 3 (72)
I1115 21:32:02.088130   196 net.cpp:156] Memory required for data: 247604000
I1115 21:32:02.088138   196 layer_factory.hpp:77] Creating layer conv8_2_mbox_conf_perm
I1115 21:32:02.088148   196 net.cpp:91] Creating Layer conv8_2_mbox_conf_perm
I1115 21:32:02.088153   196 net.cpp:425] conv8_2_mbox_conf_perm <- conv8_2_mbox_conf
I1115 21:32:02.088160   196 net.cpp:399] conv8_2_mbox_conf_perm -> conv8_2_mbox_conf_perm
I1115 21:32:02.088279   196 net.cpp:141] Setting up conv8_2_mbox_conf_perm
I1115 21:32:02.088286   196 net.cpp:148] Top shape: 1 3 3 8 (72)
I1115 21:32:02.088291   196 net.cpp:156] Memory required for data: 247604288
I1115 21:32:02.088296   196 layer_factory.hpp:77] Creating layer conv8_2_mbox_conf_flat
I1115 21:32:02.088304   196 net.cpp:91] Creating Layer conv8_2_mbox_conf_flat
I1115 21:32:02.088310   196 net.cpp:425] conv8_2_mbox_conf_flat <- conv8_2_mbox_conf_perm
I1115 21:32:02.088318   196 net.cpp:399] conv8_2_mbox_conf_flat -> conv8_2_mbox_conf_flat
I1115 21:32:02.088347   196 net.cpp:141] Setting up conv8_2_mbox_conf_flat
I1115 21:32:02.088356   196 net.cpp:148] Top shape: 1 72 (72)
I1115 21:32:02.088361   196 net.cpp:156] Memory required for data: 247604576
I1115 21:32:02.088366   196 layer_factory.hpp:77] Creating layer conv8_2_mbox_priorbox
I1115 21:32:02.088372   196 net.cpp:91] Creating Layer conv8_2_mbox_priorbox
I1115 21:32:02.088378   196 net.cpp:425] conv8_2_mbox_priorbox <- conv8_2_conv8_2_relu_0_split_3
I1115 21:32:02.088383   196 net.cpp:425] conv8_2_mbox_priorbox <- data_data_0_split_5
I1115 21:32:02.088402   196 net.cpp:399] conv8_2_mbox_priorbox -> conv8_2_mbox_priorbox
I1115 21:32:02.088435   196 net.cpp:141] Setting up conv8_2_mbox_priorbox
I1115 21:32:02.088443   196 net.cpp:148] Top shape: 1 2 144 (288)
I1115 21:32:02.088446   196 net.cpp:156] Memory required for data: 247605728
I1115 21:32:02.088451   196 layer_factory.hpp:77] Creating layer pool6_mbox_loc
I1115 21:32:02.088462   196 net.cpp:91] Creating Layer pool6_mbox_loc
I1115 21:32:02.088467   196 net.cpp:425] pool6_mbox_loc <- pool6_pool6_0_split_0
I1115 21:32:02.088477   196 net.cpp:399] pool6_mbox_loc -> pool6_mbox_loc
I1115 21:32:02.089709   196 net.cpp:141] Setting up pool6_mbox_loc
I1115 21:32:02.089718   196 net.cpp:148] Top shape: 1 16 1 1 (16)
I1115 21:32:02.089723   196 net.cpp:156] Memory required for data: 247605792
I1115 21:32:02.089740   196 layer_factory.hpp:77] Creating layer pool6_mbox_loc_perm
I1115 21:32:02.089748   196 net.cpp:91] Creating Layer pool6_mbox_loc_perm
I1115 21:32:02.089754   196 net.cpp:425] pool6_mbox_loc_perm <- pool6_mbox_loc
I1115 21:32:02.089762   196 net.cpp:399] pool6_mbox_loc_perm -> pool6_mbox_loc_perm
I1115 21:32:02.089880   196 net.cpp:141] Setting up pool6_mbox_loc_perm
I1115 21:32:02.089890   196 net.cpp:148] Top shape: 1 1 1 16 (16)
I1115 21:32:02.089895   196 net.cpp:156] Memory required for data: 247605856
I1115 21:32:02.089898   196 layer_factory.hpp:77] Creating layer pool6_mbox_loc_flat
I1115 21:32:02.089905   196 net.cpp:91] Creating Layer pool6_mbox_loc_flat
I1115 21:32:02.089910   196 net.cpp:425] pool6_mbox_loc_flat <- pool6_mbox_loc_perm
I1115 21:32:02.089918   196 net.cpp:399] pool6_mbox_loc_flat -> pool6_mbox_loc_flat
I1115 21:32:02.089949   196 net.cpp:141] Setting up pool6_mbox_loc_flat
I1115 21:32:02.089956   196 net.cpp:148] Top shape: 1 16 (16)
I1115 21:32:02.089959   196 net.cpp:156] Memory required for data: 247605920
I1115 21:32:02.089964   196 layer_factory.hpp:77] Creating layer pool6_mbox_conf
I1115 21:32:02.089974   196 net.cpp:91] Creating Layer pool6_mbox_conf
I1115 21:32:02.089978   196 net.cpp:425] pool6_mbox_conf <- pool6_pool6_0_split_1
I1115 21:32:02.089987   196 net.cpp:399] pool6_mbox_conf -> pool6_mbox_conf
I1115 21:32:02.091087   196 net.cpp:141] Setting up pool6_mbox_conf
I1115 21:32:02.091099   196 net.cpp:148] Top shape: 1 8 1 1 (8)
I1115 21:32:02.091104   196 net.cpp:156] Memory required for data: 247605952
I1115 21:32:02.091114   196 layer_factory.hpp:77] Creating layer pool6_mbox_conf_perm
I1115 21:32:02.091122   196 net.cpp:91] Creating Layer pool6_mbox_conf_perm
I1115 21:32:02.091127   196 net.cpp:425] pool6_mbox_conf_perm <- pool6_mbox_conf
I1115 21:32:02.091136   196 net.cpp:399] pool6_mbox_conf_perm -> pool6_mbox_conf_perm
I1115 21:32:02.091254   196 net.cpp:141] Setting up pool6_mbox_conf_perm
I1115 21:32:02.091264   196 net.cpp:148] Top shape: 1 1 1 8 (8)
I1115 21:32:02.091269   196 net.cpp:156] Memory required for data: 247605984
I1115 21:32:02.091274   196 layer_factory.hpp:77] Creating layer pool6_mbox_conf_flat
I1115 21:32:02.091281   196 net.cpp:91] Creating Layer pool6_mbox_conf_flat
I1115 21:32:02.091286   196 net.cpp:425] pool6_mbox_conf_flat <- pool6_mbox_conf_perm
I1115 21:32:02.091294   196 net.cpp:399] pool6_mbox_conf_flat -> pool6_mbox_conf_flat
I1115 21:32:02.091327   196 net.cpp:141] Setting up pool6_mbox_conf_flat
I1115 21:32:02.091334   196 net.cpp:148] Top shape: 1 8 (8)
I1115 21:32:02.091338   196 net.cpp:156] Memory required for data: 247606016
I1115 21:32:02.091343   196 layer_factory.hpp:77] Creating layer pool6_mbox_priorbox
I1115 21:32:02.091351   196 net.cpp:91] Creating Layer pool6_mbox_priorbox
I1115 21:32:02.091356   196 net.cpp:425] pool6_mbox_priorbox <- pool6_pool6_0_split_2
I1115 21:32:02.091361   196 net.cpp:425] pool6_mbox_priorbox <- data_data_0_split_6
I1115 21:32:02.091368   196 net.cpp:399] pool6_mbox_priorbox -> pool6_mbox_priorbox
I1115 21:32:02.091401   196 net.cpp:141] Setting up pool6_mbox_priorbox
I1115 21:32:02.091409   196 net.cpp:148] Top shape: 1 2 16 (32)
I1115 21:32:02.091413   196 net.cpp:156] Memory required for data: 247606144
I1115 21:32:02.091426   196 layer_factory.hpp:77] Creating layer mbox_loc
I1115 21:32:02.091436   196 net.cpp:91] Creating Layer mbox_loc
I1115 21:32:02.091444   196 net.cpp:425] mbox_loc <- conv4_3_norm_mbox_loc_flat
I1115 21:32:02.091450   196 net.cpp:425] mbox_loc <- fc7_mbox_loc_flat
I1115 21:32:02.091456   196 net.cpp:425] mbox_loc <- conv6_2_mbox_loc_flat
I1115 21:32:02.091462   196 net.cpp:425] mbox_loc <- conv7_2_mbox_loc_flat
I1115 21:32:02.091467   196 net.cpp:425] mbox_loc <- conv8_2_mbox_loc_flat
I1115 21:32:02.091472   196 net.cpp:425] mbox_loc <- pool6_mbox_loc_flat
I1115 21:32:02.091480   196 net.cpp:399] mbox_loc -> mbox_loc
I1115 21:32:02.091512   196 net.cpp:141] Setting up mbox_loc
I1115 21:32:02.091519   196 net.cpp:148] Top shape: 1 19488 (19488)
I1115 21:32:02.091524   196 net.cpp:156] Memory required for data: 247684096
I1115 21:32:02.091529   196 layer_factory.hpp:77] Creating layer mbox_conf
I1115 21:32:02.091539   196 net.cpp:91] Creating Layer mbox_conf
I1115 21:32:02.091544   196 net.cpp:425] mbox_conf <- conv4_3_norm_mbox_conf_flat
I1115 21:32:02.091550   196 net.cpp:425] mbox_conf <- fc7_mbox_conf_flat
I1115 21:32:02.091557   196 net.cpp:425] mbox_conf <- conv6_2_mbox_conf_flat
I1115 21:32:02.091567   196 net.cpp:425] mbox_conf <- conv7_2_mbox_conf_flat
I1115 21:32:02.091572   196 net.cpp:425] mbox_conf <- conv8_2_mbox_conf_flat
I1115 21:32:02.091576   196 net.cpp:425] mbox_conf <- pool6_mbox_conf_flat
I1115 21:32:02.091583   196 net.cpp:399] mbox_conf -> mbox_conf
I1115 21:32:02.091614   196 net.cpp:141] Setting up mbox_conf
I1115 21:32:02.091621   196 net.cpp:148] Top shape: 1 9744 (9744)
I1115 21:32:02.091625   196 net.cpp:156] Memory required for data: 247723072
I1115 21:32:02.091630   196 layer_factory.hpp:77] Creating layer mbox_priorbox
I1115 21:32:02.091639   196 net.cpp:91] Creating Layer mbox_priorbox
I1115 21:32:02.091644   196 net.cpp:425] mbox_priorbox <- conv4_3_norm_mbox_priorbox
I1115 21:32:02.091650   196 net.cpp:425] mbox_priorbox <- fc7_mbox_priorbox
I1115 21:32:02.091656   196 net.cpp:425] mbox_priorbox <- conv6_2_mbox_priorbox
I1115 21:32:02.091662   196 net.cpp:425] mbox_priorbox <- conv7_2_mbox_priorbox
I1115 21:32:02.091667   196 net.cpp:425] mbox_priorbox <- conv8_2_mbox_priorbox
I1115 21:32:02.091672   196 net.cpp:425] mbox_priorbox <- pool6_mbox_priorbox
I1115 21:32:02.091680   196 net.cpp:399] mbox_priorbox -> mbox_priorbox
I1115 21:32:02.091709   196 net.cpp:141] Setting up mbox_priorbox
I1115 21:32:02.091717   196 net.cpp:148] Top shape: 1 2 19488 (38976)
I1115 21:32:02.091722   196 net.cpp:156] Memory required for data: 247878976
I1115 21:32:02.091727   196 layer_factory.hpp:77] Creating layer mbox_conf_reshape
I1115 21:32:02.091735   196 net.cpp:91] Creating Layer mbox_conf_reshape
I1115 21:32:02.091739   196 net.cpp:425] mbox_conf_reshape <- mbox_conf
I1115 21:32:02.091747   196 net.cpp:399] mbox_conf_reshape -> mbox_conf_reshape
I1115 21:32:02.091784   196 net.cpp:141] Setting up mbox_conf_reshape
I1115 21:32:02.091791   196 net.cpp:148] Top shape: 1 4872 2 (9744)
I1115 21:32:02.091795   196 net.cpp:156] Memory required for data: 247917952
I1115 21:32:02.091799   196 layer_factory.hpp:77] Creating layer mbox_conf_softmax
I1115 21:32:02.091809   196 net.cpp:91] Creating Layer mbox_conf_softmax
I1115 21:32:02.091814   196 net.cpp:425] mbox_conf_softmax <- mbox_conf_reshape
I1115 21:32:02.091820   196 net.cpp:399] mbox_conf_softmax -> mbox_conf_softmax
I1115 21:32:02.092036   196 net.cpp:141] Setting up mbox_conf_softmax
I1115 21:32:02.092046   196 net.cpp:148] Top shape: 1 4872 2 (9744)
I1115 21:32:02.092051   196 net.cpp:156] Memory required for data: 247956928
I1115 21:32:02.092056   196 layer_factory.hpp:77] Creating layer mbox_conf_flatten
I1115 21:32:02.092064   196 net.cpp:91] Creating Layer mbox_conf_flatten
I1115 21:32:02.092069   196 net.cpp:425] mbox_conf_flatten <- mbox_conf_softmax
I1115 21:32:02.092077   196 net.cpp:399] mbox_conf_flatten -> mbox_conf_flatten
I1115 21:32:02.092109   196 net.cpp:141] Setting up mbox_conf_flatten
I1115 21:32:02.092123   196 net.cpp:148] Top shape: 1 9744 (9744)
I1115 21:32:02.092129   196 net.cpp:156] Memory required for data: 247995904
I1115 21:32:02.092134   196 layer_factory.hpp:77] Creating layer detection_out
I1115 21:32:02.092147   196 net.cpp:91] Creating Layer detection_out
I1115 21:32:02.092152   196 net.cpp:425] detection_out <- mbox_loc
I1115 21:32:02.092157   196 net.cpp:425] detection_out <- mbox_conf_flatten
I1115 21:32:02.092162   196 net.cpp:425] detection_out <- mbox_priorbox
I1115 21:32:02.092171   196 net.cpp:399] detection_out -> detection_out
I1115 21:32:02.093161   196 net.cpp:141] Setting up detection_out
I1115 21:32:02.093171   196 net.cpp:148] Top shape: 1 1 1 7 (7)
I1115 21:32:02.093176   196 net.cpp:156] Memory required for data: 247995932
I1115 21:32:02.093180   196 layer_factory.hpp:77] Creating layer detection_eval
I1115 21:32:02.093190   196 net.cpp:91] Creating Layer detection_eval
I1115 21:32:02.093195   196 net.cpp:425] detection_eval <- detection_out
I1115 21:32:02.093202   196 net.cpp:425] detection_eval <- label
I1115 21:32:02.093210   196 net.cpp:399] detection_eval -> detection_eval
I1115 21:32:02.093508   196 net.cpp:141] Setting up detection_eval
I1115 21:32:02.093518   196 net.cpp:148] Top shape: 1 1 2 5 (10)
I1115 21:32:02.093521   196 net.cpp:156] Memory required for data: 247995972
I1115 21:32:02.093526   196 net.cpp:219] detection_eval does not need backward computation.
I1115 21:32:02.093533   196 net.cpp:219] detection_out does not need backward computation.
I1115 21:32:02.093538   196 net.cpp:219] mbox_conf_flatten does not need backward computation.
I1115 21:32:02.093544   196 net.cpp:219] mbox_conf_softmax does not need backward computation.
…
